02_Models/new_self_driving_model_blaufilter.onnx (onnx, 440240 bytes, 24 tensors)

line_batch1.weight f4 [128]
000000 ff 5f 9c 3f 40 91 6c 3f a1 8f 88 3f 49 48 8d 3f
       1.2216796 0.92409134 1.0668832 1.1037685
000010 49 00 64 3f a8 9b 6c 3f 88 84 50 3f 2e 07 87 3f
       0.89062935 0.9242501 0.81452227 1.0549066
000020 54 32 71 3f a1 bc 73 3f 1b ac 89 3f c3 82 8a 3f
       0.9421742 0.952097 1.0755647 1.0821155
000030 7b 82 80 3f b2 c1 82 3f db 5b 88 3f 3c a3 82 3f
       1.003982 1.0215361 1.0653032 1.0206065
000040 91 21 86 3f 89 5e 63 3f ae 51 91 3f 3a fe 89 3f
       1.0478994 0.88816124 1.1353052 1.0780709
000050 00 78 69 3f b2 c9 95 3f a6 a6 7c 3f ec c3 82 3f
       0.9119873 1.1702178 0.98691785 1.0216041
000060 45 83 60 3f 14 c7 84 3f a1 42 60 3f 59 ac 85 3f
       0.877003 1.0373254 0.8760167 1.0443221
000070 de a2 6b 3f cd 5d 7c 3f bc 18 75 3f 66 e7 88 3f
       0.9204539 0.9858063 0.95740867 1.0695617
000080 98 94 6d 3f b3 35 84 3f 9e 45 8b 3f 6f 78 89 3f
       0.9280486 1.0328888 1.088062 1.0739878
000090 e7 2d 75 3f ce 0a 7e 3f 50 e7 6e 3f 2e f9 7b 3f
       0.95773166 0.99235237 0.93321705 0.98427093
0000a0 cd 5f 73 3f ae 58 84 3f 56 2d 74 3f 95 9f 83 3f
       0.95068055 1.0339563 0.9538168 1.0283076
0000b0 e1 4f 77 3f d3 62 76 3f ab bc 7b 3f 5c 80 87 3f
       0.9660626 0.96244544 0.9833476 1.0586047
0000c0 c6 85 8c 3f d4 51 8a 3f af 85 89 3f ba a9 7a 3f
       1.0978324 1.0806222 1.0743922 0.9791523
0000d0 07 e6 89 3f cb cc 7d 3f 42 b7 81 3f 06 7f 72 3f
       1.0773324 0.99140614 1.0134051 0.9472507
0000e0 88 2b 81 3f 4d 21 89 3f 2c 36 84 3f aa f1 6b 3f
       1.009141 1.0713288 1.0329032 0.92165625
0000f0 3b 7f 7f 3f 78 d5 80 3f 32 cd 7c 3f 17 31 79 3f
       0.99803513 1.0065145 0.98750603 0.9734053
000100 0d f2 8e 3f 22 25 80 3f 1f e1 80 3f ae ae 8e 3f
       1.1167618 1.0011332 1.0068702 1.1147058
000110 66 e3 8e 3f 4b 32 88 3f 35 82 8a 3f e6 37 6c 3f
       1.1163146 1.0640348 1.0820986 0.92272794
000120 2b 5d 7c 3f 81 08 7d 3f f3 5e 8c 3f 14 16 87 3f
       0.98579663 0.988411 1.0966476 1.0553613
000130 a7 1c 80 3f 06 94 91 3f 3c c9 6f 3f cb 74 7a 3f
       1.0008744 1.1373298 0.93666434 0.9783446
000140 3b c7 8b 3f 30 b0 7f 3f 54 71 87 3f 0e 09 72 3f
       1.0920175 0.99878216 1.058146 0.94545066
000150 29 8f 72 3f c5 c0 6b 3f 5a 66 8e 3f ac 1d 82 3f
       0.94749695 0.9209102 1.1124985 1.0165305
000160 54 7d 83 3f 7b 99 99 3f 14 a0 84 3f 47 71 96 3f
       1.0272622 1.1999964 1.0361352 1.175332
000170 6e 50 7d 3f 1a a3 59 3f 27 d7 87 3f 53 45 87 3f
       0.9895085 0.850145 1.0612534 1.0568031
000180 1f 50 85 3f 34 23 70 3f f9 1b 66 3f 01 84 87 3f
       1.0415076 0.93803716 0.8988643 1.0587159
000190 5d 52 78 3f 45 fa 72 3f 05 04 7f 3f 35 94 84 3f
       0.97000676 0.9491313 0.9961551 1.0357729
0001a0 e5 b2 89 3f bd 6d 90 3f 4c c1 6e 3f 98 6c 88 3f
       1.0757719 1.128349 0.932637 1.065814
0001b0 5e 87 81 3f e6 83 84 3f 61 fe 7b 3f ab 77 74 3f
       1.0119436 1.0352752 0.98435026 0.954951
0001c0 8c 11 75 3f 33 08 78 3f 5f ab 64 3f 53 85 87 3f
       0.957299 0.9688751 0.8932399 1.0587562
0001d0 4a 5f 7a 3f 90 35 84 3f 60 b3 70 3f 1c 66 85 3f
       0.9780165 1.0328846 0.94023705 1.0421786
0001e0 5f 2f 6e 3f aa c6 78 3f 4f f1 5f 3f d5 3b 8c 3f
       0.9304103 0.9717814 0.8747758 1.0955759
0001f0 c3 c8 81 3f 0f a4 6c 3f 98 f6 82 3f b6 d3 77 3f
       1.0139393 0.92437834 1.0231504 0.9680742

line_batch1.bias f4 [128]
000000 c1 c6 ed 3d 83 f9 fb bb 9f ec c1 3d db 75 28 3e
       0.11610175 -0.007689656 0.0946896 0.16451208
000010 41 b7 53 3d a8 94 9c bc 76 d0 f8 b9 b3 a0 1a 3d
       0.051688436 -0.019113854 -0.00047457562 0.03775091
000020 61 46 25 3c c4 73 5a 3d 38 ca 28 bd 9a 2d a6 3d
       0.01008758 0.05333306 -0.041208476 0.081141666
000030 38 bb 2a 3d 12 e7 c2 3d bf f5 e7 3b 6a ea 55 3d
       0.041682452 0.095167294 0.0070788558 0.052225508
000040 e8 8e 5f bd e5 63 1b be b7 e3 17 3e 74 53 c0 3c
       -0.054579645 -0.15174825 0.1483296 0.023477294
000050 28 81 68 bd 61 23 d5 3d 5b 41 7d 3c a1 e0 fa 3d
       -0.056763798 0.104071386 0.0154574765 0.12249876
000060 f8 17 f5 bd 45 08 e2 3b 06 41 ff bd d4 cb ad 3d
       -0.11967462 0.0068979585 -0.12463574 0.08486143
000070 b0 4f 73 bc 0a 28 3f 3d 09 78 5d bd 6a f3 d1 3d
       -0.014850542 0.046669044 -0.054069553 0.10251506
000080 79 c5 6a bd 24 e0 be 3d 9f e3 0c 3e 8e ef 09 3c
       -0.05731723 0.09320095 0.13758706 0.008418931
000090 86 1e 11 3c 9c d0 71 3d aa 33 9a bd 69 ea 5a 3c
       0.008857375 0.059036836 -0.075293854 0.013361552
0000a0 5e 85 8e 3d 68 c9 db bc cb 06 42 bc 6e 32 58 3d
       0.069590315 -0.026829436 -0.01184244 0.05278247
0000b0 1b 3e a5 3d 43 9e 6e 3c ed 67 28 3d 8d ab f7 3d
       0.08068486 0.0145641 0.041114736 0.120932676
0000c0 3a 8c 95 3d e8 6a 0a 3e c5 aa 39 3e 4b 78 50 bd
       0.07302137 0.13517344 0.1813155 -0.05089597
0000d0 72 0c 17 3d f5 96 de 3b 69 fc 26 3e e9 f5 11 bd
       0.036877103 0.006792898 0.16307224 -0.03563491
0000e0 4f 5e 02 3d aa e9 b7 3d f7 5b 11 3d 77 4a 93 bd
       0.03182822 0.08980115 0.035488095 -0.071919374
0000f0 ac 9f 30 bd a5 ca 84 3c 73 d2 3f 3c 86 0d 85 bd
       -0.043121025 0.01620991 0.01170789 -0.0649672
000100 5b bf 40 3e 87 3a 1e 3d b7 85 1a bd 61 b9 02 3e
       0.18822996 0.038630035 -0.037725177 0.12766029
000110 39 d2 0a 3e f9 5a 98 3c 48 f7 b5 3d 9c 29 9f bd
       0.13556756 0.018598067 0.08885056 -0.07771608
000120 f0 df b4 3d 5c 29 5c 3d e4 09 4f 3d 76 fe e7 3d
       0.08831775 0.05375038 0.05054654 0.113278314
000130 94 48 0a bd 5c 97 ce 3d 43 b0 48 bc c3 86 2f 3b
       -0.033760622 0.10087463 -0.012249055 0.0026783205
000140 90 02 a6 3d eb b0 14 3d 33 5d 7e 3c 1c 7e 8b 3d
       0.081059575 0.036301535 0.01552515 0.06811163
000150 4d c2 3c 3d dc 8a 68 bd b8 e6 06 3b 46 5b 1e 3c
       0.046083737 -0.05677305 0.0020584296 0.009665316
000160 5d 62 ca 3c 1b 39 b2 3d fa df 06 3d d6 02 95 3d
       0.024705106 0.08702298 0.032928444 0.072759315
000170 2f c7 6b 3b fe 17 40 be 87 f0 cb 3d 07 e7 66 3d
       0.0035976877 -0.18759152 0.09957986 0.05637267
000180 39 64 1e 3d db 64 d7 3c 0b b7 6e bd d5 02 68 3e
       0.0386698 0.026293209 -0.058280032 0.2265733
000190 30 80 81 3d df b1 24 bd fd ad 17 3d 57 0c d9 3c
       0.06323278 -0.040208694 0.037031163 0.026495142
0001a0 89 34 42 3e 94 04 91 3d b3 a3 b1 bd 5a 07 da 3d
       0.18965353 0.07080951 -0.08673801 0.106459334
0001b0 d4 75 7e 3c d1 29 6d 3c 37 eb bf bd c6 b8 db bc
       0.015531022 0.014475302 -0.093710355 -0.026821505
0001c0 66 07 e8 3a 53 dd 5e 3b 0d 20 ca bc 47 32 9b 3d
       0.00177024 0.0034006431 -0.024673486 0.07577949
0001d0 56 88 c6 3d e7 f9 86 3c 0b 8c 2f bd 1c a1 90 3d
       0.09693973 0.016476585 -0.042858165 0.07061979
0001e0 bd d4 a9 bd 46 ad 07 3b 1a 46 a3 bd 3f a1 1a 3e
       -0.0829253 0.0020702644 -0.07972355 0.15100573
0001f0 63 12 12 3e d9 f3 84 3c bd 66 39 3e 66 12 82 bc
       0.14264826 0.016229557 0.18105598 -0.015877914

line_batch1.running_mean f4 [128]
000000 8b 41 0d 3f a4 4c d6 bf 7a 82 31 bf 56 45 6a bf
       0.55178136 -1.6742139 -0.69339716 -0.9151205
000010 40 89 09 bf 07 fc 8e bf 54 ae 64 bf 6d 67 cb be
       -0.5372505 -1.1170663 -0.89328504 -0.39727345
000020 11 07 d4 bf f7 39 99 bf 1e 31 a2 3f 82 7a b4 bf
       -1.6564656 -1.1970814 1.2671239 -1.4099886
000030 a9 48 68 be 30 8d f0 be 6f e2 58 3f 02 81 4e 3d
       -0.22683968 -0.46982718 0.8472051 0.050416
000040 89 e7 a9 3f 36 62 43 3e de 02 30 bf bc b5 16 be
       1.3273784 0.19080433 -0.68754375 -0.14717764
000050 ef c8 7b bf 51 06 80 be 3f 8f 42 bf aa aa c5 bf
       -0.98353475 -0.2500482 -0.75999826 -1.5442708
000060 a1 c7 71 bf 7e 0e bc be 70 06 20 3d 9b 7b 98 3f
       -0.94445235 -0.36729807 0.03906864 1.1912721
000070 bf 6c 3e be ae b4 4c 3e 5d ee 13 bf 8f 56 2b be
       -0.18596171 0.19990799 -0.5778559 -0.16732238
000080 36 f6 aa be 5e ed 24 bf 0c f6 1a 3d ee ad 09 3f
       -0.3339097 -0.64424694 0.037832305 0.5378102
000090 f1 90 89 bf 10 8e c5 3e 21 2e 12 3f 8b 15 db bf
       -1.0747358 0.38584948 0.5710164 -1.7115949
0000a0 66 2a 43 3f a6 cb 45 3f 02 1e 7e 3d 27 03 8f 3e
       0.7623657 0.7726387 0.062040336 0.27932093
0000b0 c4 0b 6d bf f8 de c4 3e 04 71 74 be c3 ce 58 3e
       -0.9259608 0.38451362 -0.23871237 0.21172623
0000c0 8a 7a 3d 3f 29 b0 a6 bd 8d 2f 54 bf 2e 79 1c 3f
       0.74015105 -0.08139069 -0.82885057 0.61122406
0000d0 d6 02 84 bf 0e 6b b0 bf 4a b5 2e 3e cc 61 b5 bf
       -1.0313365 -1.378267 0.17061344 -1.417047
0000e0 34 c7 19 3f 78 a7 f0 bf 1a 3d e5 be 6a eb 65 bf
       0.60069585 -1.8801107 -0.4477318 -0.8981234
0000f0 ea 93 33 bf ff 57 ee be 38 91 31 be 06 ac ec be
       -0.70147574 -0.4655151 -0.17340553 -0.46224993
000100 22 23 04 bf e3 ab 85 bf 00 8c 6a 3f 04 28 4a 3d
       -0.5161611 -1.0443081 0.91619873 0.049354568
000110 06 5e a1 3e 8f cf 80 3e f0 99 43 3f cf 50 a1 bf
       0.31517047 0.25158355 0.76406765 -1.2602786
000120 63 ab 16 bf 06 1f fc be a0 55 a9 3e e3 84 9d bf
       -0.58855265 -0.4924242 0.3307314 -1.2306179
000130 a5 15 2a 3f 8a b5 d9 bd 71 62 7b bf de ce 5a 3e
       0.66439277 -0.10630329 -0.98197085 0.21367976
000140 34 ed 34 bf 5d 81 bc 3e 79 00 82 3f 33 cc de bf
       -0.70674443 0.36817446 1.0156394 -1.7406067
000150 47 7f 0a bf 15 82 72 bf 79 23 a8 bf 04 e7 15 3f
       -0.5410046 -0.9472974 -1.3135825 0.58555627
000160 00 b0 e5 be fc bb 92 bd 07 c3 7e 3e 30 fd 88 bf
       -0.4486084 -0.071647614 0.24879085 -1.0702267
000170 78 fe 83 bf 81 ca a5 bf 59 f4 78 3d 0b f4 c0 be
       -1.0312033 -1.2952424 0.060779903 -0.3768619
000180 0a 98 b0 3c 68 c1 bb 3c 08 25 59 bf b7 6c 04 c0
       0.021556873 0.022919372 -0.8482213 -2.0691354
000190 1a 91 75 bf d1 22 d2 bf 60 60 02 3f c8 8a a5 be
       -0.9592453 -1.6416875 0.50928307 -0.32332444
0001a0 f9 e4 4a bf 6d 61 53 3d 2e ac 87 3f 94 17 0f 3f
       -0.79255635 0.051606584 1.059942 0.5589535
0001b0 f9 07 9a 3f 0b 52 a0 3f 27 bb 77 3f b0 76 85 3f
       1.2033683 1.2525038 0.96769947 1.0426846
0001c0 0e c6 99 be f1 e9 cf be a5 31 54 bf 6f 9b af be
       -0.30033916 -0.4060817 -0.8288825 -0.34298274
0001d0 eb 89 ec be 53 4c 8f 3e e9 9d 9a bf ac 5b 47 bd
       -0.46198973 0.27987918 -1.207944 -0.04867141
0001e0 e9 c9 fa be f9 cf 86 bf 37 0d 76 bf 0f 9f bd bf
       -0.4898217 -1.0532218 -0.96113914 -1.4814166
0001f0 6d ce 3e bf 13 d7 43 bf 11 8b 05 bf a3 47 9a be
       -0.7453373 -0.7650005 -0.52165323 -0.3013278

line_batch1.running_var f4 [128]
000000 c7 e4 28 40 0f 60 99 40 8c 90 1f 40 08 06 12 40
       2.6389635 4.792976 2.4931974 2.281618
000010 fc 2e 20 40 00 9f 69 40 b1 87 02 40 e1 72 cc 3f
       2.5028677 3.6503296 2.039532 1.5972558
000020 05 a4 71 40 79 c9 94 40 97 10 b1 3f 86 b2 31 40
       3.775636 4.649594 1.3833188 2.7765212
000030 42 6a 41 40 68 5a e6 3f b7 44 23 40 59 d6 2c 40
       3.0221105 1.799634 2.551069 2.7005827
000040 47 0f 0d 40 89 37 17 3f 38 6f 07 40 93 6c cd 3f
       2.2040575 0.59069115 2.1161633 1.6048759
000050 f9 71 20 40 2a d2 4d 40 9d ce 65 40 b2 5e 45 40
       2.5069563 3.2159524 3.5907357 3.0839047
000060 d3 d7 01 40 6e 9a eb 3f 0e a5 52 3f f2 f2 35 40
       2.0287979 1.8406503 0.82283103 2.8429532
000070 a7 a7 ed 3f 75 e0 82 3f 7f 80 89 3f 53 ec ac 3f
       1.8566788 1.0224749 1.0742339 1.350962
000080 0a df 22 40 9e 09 01 40 27 2d d2 3f 7b eb b6 3f
       2.5448632 2.016212 1.6420029 1.4290613
000090 90 f3 89 40 cd f8 ec 3f d7 c4 c8 3f 13 c5 ab 40
       4.3109818 1.8513428 1.5685071 5.367807
0000a0 54 8b 23 40 a0 b4 98 3f 78 d7 8d 3f 29 1a a6 3f
       2.555379 1.1930122 1.1081381 1.2976733
0000b0 39 27 ea 3f 31 76 22 40 fc b1 6f 3f d6 ab f0 3f
       1.829322 2.5384638 0.9363096 1.880244
0000c0 7a 56 0a 40 44 17 52 40 d1 84 bb 3f 9b 41 ab 3f
       2.161528 3.28267 1.4649907 1.3379396
0000d0 4f a8 c5 3f 3e e7 87 40 4b 4d db 3f 6a ff 5e 40
       1.5441989 4.246978 1.7132963 3.4843392
0000e0 4d f6 98 3f 97 0d 0a 40 ff 4b a0 3f ca 90 26 40
       1.1950165 2.1570795 1.2523192 2.6025872
0000f0 00 62 2a 3f 22 2f 16 40 56 2c e0 3f fa d4 3f 3f
       0.66555786 2.3466268 1.751353 0.7493435
000100 da 57 59 40 1b 95 2d 40 3c e2 8d 3f a1 a7 13 40
       3.395987 2.7122257 1.1084666 2.3071063
000110 0b 56 0c 40 4c b4 bf 3f fe c0 f1 3f ab 42 72 40
       2.1927516 1.4976897 1.8887022 3.785319
000120 54 fd f5 3f 7a b6 55 40 d6 fa 27 40 91 91 76 40
       1.9217935 3.3392625 2.6246848 3.8526347
000130 10 d2 b9 3f 46 1c f0 3f ab 8d 55 40 b1 6d 35 40
       1.4517231 1.8758628 3.3367717 2.83482
000140 c9 2b fe 3f e7 2e a4 3f 66 5e da 3f f7 8c 05 40
       1.9857112 1.2826813 1.7060058 2.0867288
000150 4f cb 1f 40 84 39 96 40 26 2b cd 3f 72 c1 e0 3f
       2.496784 4.694521 1.6028793 1.7559035
000160 1f b6 94 3f cf c1 ef 3f 64 c1 e4 3f 88 c8 53 40
       1.1618079 1.8731021 1.7871518 3.3091145
000170 18 b5 d4 3f 80 ef f3 3f 72 e5 be 40 e3 2f b4 3f
       1.6617765 1.9057465 5.9655085 1.4077114
000180 6b a8 f1 3f 5f af 80 40 5e 13 02 40 3d 17 25 40
       1.8879522 4.0214076 2.032432 2.5795434
000190 25 b6 6a 40 58 b6 88 40 eb f0 fb 3f 25 cc da 3f
       3.6673672 4.2722588 1.9682897 1.709355
0001a0 1a 33 05 40 0a eb ef 3f b8 03 f9 3f 44 dd 0d 40
       2.081244 1.8743603 1.945426 2.21663
0001b0 75 9f 23 40 30 aa c7 3f 85 df c2 3f 3c e1 de 3f
       2.5566075 1.5598812 1.5224463 1.7412486
0001c0 23 54 45 40 df a6 1f 40 fd 09 2d 40 84 1f ac 3f
       3.0832603 2.49456 2.7037346 1.3447118
0001d0 1b c0 dc 3f 21 16 cd 3f 8d 78 7e 40 04 e3 34 40
       1.7246126 1.6022378 3.9761078 2.826356
0001e0 a3 43 bc 3f 04 a2 2b 40 12 11 91 3f 19 7c 1d 40
       1.4708141 2.6817636 1.1333334 2.4606993
0001f0 f4 a8 0e 40 f9 3a 0b 40 23 02 61 40 86 c7 24 3f
       2.229062 2.1754744 3.5157554 0.6436695

line_batch2.weight f4 [64]
000000 c9 99 41 3f ef 93 49 3f 61 da 83 3f 5e 31 69 3f
       0.7562528 0.78741354 1.0301019 0.91090953
000010 db e8 6f 3f 41 51 4f 3f 99 64 44 3f f9 ff 6e 3f
       0.93714684 0.8098336 0.76716 0.93359333
000020 2b 29 78 3f b8 c6 4e 3f 7a e5 59 3f 07 fa 71 3f
       0.9693782 0.8077197 0.8511578 0.94522136
000030 40 af 59 3f f6 ac 60 3f f6 6c 6b 3f 1d b7 4f 3f
       0.85033035 0.8776392 0.91963136 0.81138784
000040 8d d1 61 3f c1 ed 58 3f c3 7b 74 3f 7e ad 62 3f
       0.88210374 0.84737784 0.95501345 0.8854598
000050 da b1 48 3f be db 6b 3f ab 3d 62 3f c3 a2 3f 3f
       0.7839638 0.92132175 0.8837535 0.7485773
000060 72 46 58 3f 88 60 61 3f 03 82 83 3f 4f cf 62 3f
       0.8448249 0.8803792 1.0274051 0.8859758
000070 2a 90 42 3f 52 35 75 3f 22 d3 6e 3f b0 0d 61 3f
       0.76001227 0.95784485 0.93290913 0.8791151
000080 12 7b 5f 3f 68 bb 79 3f f8 e4 62 3f 32 c3 5f 3f
       0.87297165 0.97551584 0.8863063 0.8740722
000090 dd b4 4b 3f ba f1 55 3f ee e6 65 3f 8e 8a 6b 3f
       0.7957285 0.8357197 0.89805496 0.9200829
0000a0 e4 fc 6e 3f be 83 5f 3f 73 c3 6c 3f 68 87 48 3f
       0.9335463 0.873104 0.9248573 0.78331614
0000b0 c4 f9 6a 3f 69 53 65 3f f9 6e 6a 3f ef 83 4b 3f
       0.9178736 0.895804 0.9157558 0.7949819
0000c0 cc d4 58 3f 77 3f 63 3f e8 a2 66 3f 4b f4 5a 3f
       0.846997 0.88768715 0.90092325 0.8552901
0000d0 84 40 5b 3f b4 54 6c 3f c1 59 48 3f 2b 6c 61 3f
       0.8564532 0.92316747 0.78261954 0.88055676
0000e0 b6 b7 74 3f 96 15 7f 3f c9 4f 50 3f 70 3e 5a 3f
       0.9559282 0.9964231 0.8137174 0.8525152
0000f0 cc ec 4a 3f d1 90 5e 3f 7f 00 41 3f 10 01 61 3f
       0.79267573 0.8693972 0.7539138 0.87892246

line_batch2.bias f4 [64]
000000 23 7f cf bd 59 a2 ea bd e9 02 81 3d d4 31 b9 bc
       -0.10131671 -0.114567466 0.06299383 -0.022606768
000010 50 61 22 be 51 5a 55 3c 16 87 74 bd 5c 29 22 bc
       -0.15857434 0.013022021 -0.05969914 -0.009897556
000020 37 2a e2 3c 1c a1 14 bd 21 fb d4 3c a9 07 9b bc
       0.02760802 -0.03628646 0.025998654 -0.018924551
000030 3f 98 e1 3c 9f 7c 19 3c 7d 46 46 bc 55 a2 72 bc
       0.027538417 0.009368091 -0.012101767 -0.014809211
000040 20 ff c8 bc fc 0b 85 3d 34 a7 25 3c 63 58 bf 3b
       -0.024535716 0.064964265 0.010110665 0.005839394
000050 78 a1 0c be f4 ae 50 bd cd 9a f5 bc b1 5d d1 bd
       -0.1373347 -0.0509481 -0.029981041 -0.10222948
000060 b4 6b d1 bd 71 40 90 3d 49 0d ae bd 45 72 cc 3d
       -0.10225621 0.07043541 -0.08498628 0.09982733
000070 32 42 0f be 55 fd af bc 91 03 30 3c 55 98 ae bd
       -0.13990095 -0.021483103 0.010743038 -0.08525149
000080 bc f7 08 bb 96 a3 db 3a cb 94 a5 bd 6a 7e 9b 3c
       -0.0020899614 0.0016757126 -0.08085021 0.018981177
000090 f5 c7 1f bd ba 02 54 3d 77 6b 9c bc 02 93 44 bd
       -0.039009053 0.051760413 -0.019094212 -0.04799176
0000a0 00 4e 7b bd 00 9d 52 3c 68 18 a3 bc 19 22 05 be
       -0.061353683 0.0128548145 -0.019909099 -0.13001288
0000b0 ab c7 cb bc 3a c1 9a 3c e8 c3 10 3e c0 5e e1 bd
       -0.024875483 0.018890966 0.14137232 -0.110044
0000c0 f9 06 a7 3c 84 bd d5 3c 86 c4 00 3d 0a f9 ef bc
       0.020389067 0.026091345 0.03143742 -0.029293556
0000d0 3d 7c 78 3d 1f d8 e0 ba 32 b8 31 be e7 64 0b bd
       0.060665358 -0.0017154253 -0.17355421 -0.034031775
0000e0 2d db 31 bc 0d d6 ba 3c ec b8 18 bd 50 08 80 bd
       -0.010855478 0.022807145 -0.03728573 -0.062515855
0000f0 3e f0 d0 bd 7d 72 df 3c 55 6a 03 be 7f 64 7e 3d
       -0.102020726 0.027276272 -0.12833531 0.06210756

line_batch2.running_mean f4 [64]
000000 06 a8 73 bf 97 cb e2 bf 11 f5 a1 bf ba 1e f7 be
       -0.9517826 -1.7718381 -1.2652913 -0.4826563
000010 8d 76 02 bf af 3f e2 bf db 52 cf bf 60 bd 3e be
       -0.50962144 -1.7675685 -1.619716 -0.18626928
000020 0e e8 41 bf 56 f0 90 bf 52 36 ae bf 18 98 78 be
       -0.7574471 -1.1323345 -1.3610327 -0.24276769
000030 04 30 09 c0 d0 33 1b bf 2c 52 af be f5 68 ff bf
       -2.1435556 -0.60625935 -0.3424238 -1.9953905
000040 77 59 84 bf 46 85 76 bf 39 18 f8 3d b5 17 d7 bf
       -1.0339803 -0.9629711 0.12113995 -1.680411
000050 98 02 fb bf 27 87 7d bf fd 17 7d bf d8 c3 a8 bf
       -1.9610167 -0.9903435 -0.9886473 -1.3184767
000060 be 7b 8a bf c0 46 91 bf 03 02 e4 be 5b 3a f0 bf
       -1.0819013 -1.1349716 -0.44532785 -1.8767809
000070 6c 0d ee bf 38 e8 14 bf 51 9b 14 c0 e8 e8 ca bf
       -1.8597846 -0.5816684 -2.3219798 -1.5852327
000080 3f ac be bf 31 d6 3a c0 2a 56 10 bf 3d a7 ee bf
       -1.4896315 -2.9193232 -0.56381476 -1.8644787
000090 eb 9c f2 be cd dc 94 bf dd 48 b5 be 19 c4 98 be
       -0.47385344 -1.1629883 -0.35407153 -0.2983711
0000a0 10 e5 cd be 0b 93 b3 bf 01 1f 27 be 07 ac 0f bf
       -0.40213823 -1.4029249 -0.16320421 -0.5612187
0000b0 d7 50 d6 be 89 0c b6 bf 6b e5 09 c0 ac fa eb bf
       -0.4185855 -1.4222575 -2.1546276 -1.8435874
0000c0 3d 07 9e bf 70 5a c2 bf fb 25 9b be d0 44 b9 bf
       -1.2345959 -1.5183849 -0.30302414 -1.4474125
0000d0 0d 8f e9 bf e5 ef cc bf c3 3b 95 bf 69 82 12 3d
       -1.8246781 -1.601071 -1.1658863 0.0357689
0000e0 62 71 e3 bd 0d c9 d6 3d db b4 0c c0 af ea ab bf
       -0.111056104 0.10487566 -2.1985385 -1.3430995
0000f0 e0 b6 55 bf 71 47 ec bf d0 44 ef bf a1 31 d6 bf
       -0.8348217 -1.8459302 -1.8692875 -1.6733896

line_batch2.running_var f4 [64]
000000 e1 41 6e 40 b8 2d dd 3f 34 61 a1 40 75 bf 0e 40
       3.722771 1.7279577 5.0431156 2.2304356
000010 db 3c e5 3f 05 31 c4 40 52 0c 25 40 8a 88 f8 3f
       1.7909197 6.130984 2.578877 1.9416668
000020 0d 5d 64 40 04 c1 4e 40 e8 61 ca 40 20 6f d1 3f
       3.5681794 3.2305307 6.3244514 1.6362038
000030 9a 52 19 41 6a f9 62 3f e4 a8 1e 40 23 3a b8 40
       9.582666 0.88661826 2.4790583 5.757097
000040 68 2e 80 40 f6 bb ff 40 3e 92 3f 40 b1 69 80 40
       4.005665 7.9916945 2.993301 4.012902
000050 94 cb 44 40 4e 80 1c 40 bb dc 57 40 ed b9 4e 40
       3.0749254 2.445331 3.3728473 3.230098
000060 fc 95 a2 3f e7 29 1d 41 40 13 58 40 b5 bb 04 41
       1.2702022 9.82273 3.376175 8.295827
000070 bf e7 3c 40 43 c2 cc 3f 65 56 56 40 30 f3 b0 3f
       2.9516447 1.5996784 3.349023 1.3824215
000080 35 c3 41 40 fc 84 42 40 4f 20 6b 40 e7 99 b4 40
       3.0275395 3.0393667 3.673847 5.643787
000090 d1 53 57 40 7f 6e ee 40 9f 7b 29 40 51 ae 24 40
       3.3644907 7.4509883 2.6481702 2.5731394
0000a0 5a 97 cb 3f a4 d5 20 40 3a 32 0f 40 10 77 09 40
       1.5905564 2.5130396 2.2374406 2.147892
0000b0 ae 42 06 40 a4 d8 9d 40 34 64 10 41 11 d2 75 40
       2.0978198 4.9326954 9.024464 3.8409464
0000c0 89 f0 f7 3f 2d 22 02 41 76 ad 4a 40 3b 02 6e 40
       1.937028 8.133344 3.1668372 3.7188861
0000d0 f3 6f 97 40 89 c6 6e 40 0b bc 06 40 63 c4 29 40
       4.7324157 3.7308676 2.1052272 2.6526115
0000e0 17 b6 55 40 66 d5 a8 40 14 06 44 40 b5 59 df 3f
       3.339239 5.2760496 3.062871 1.7449251
0000f0 16 0c a2 3f 95 59 81 40 30 bd 75 3f 05 d2 d2 40
       1.2659938 4.0421853 0.959918 6.588137

linear1.weight f4 [128, 192]
000000 3e 82 1c 3d e1 a0 94 bd 06 36 d4 bd fc 86 85 bc
       0.038210146 -0.07257248 -0.10361867 -0.016299717
000010 09 b5 66 3d 2e 1c eb 3c 9f 1a 28 3e b3 fc b3 3b
       0.056324992 0.02869996 0.16416405 0.0054927706
000020 c1 6a 21 3e a1 89 93 bc e1 35 27 bd bc ca 22 3e
       0.1576338 -0.018009963 -0.040822867 0.1589765
000030 4c 7a 12 3d 8a 57 3d 3d 8b 99 a1 3c e7 db e3 bd
       0.035761163 0.046226062 0.019726535 -0.111259274
000040 ab bb 17 3e 5a a6 44 bd 25 48 1d bd 88 a6 54 3d
       0.14817683 -0.048010208 -0.03839888 0.05191663
000050 81 96 0f bd 5b 6e 18 3d 9d b5 9d 3d c2 bc 03 bd
       -0.03505564 0.03721462 0.077006556 -0.032162435
000060 9f f3 09 3e 18 20 62 bd a3 72 1d 3e 09 85 de 3d
       0.1347184 -0.05520639 0.15375762 0.10865218
000070 44 e9 74 3d 39 b0 51 3d 18 2d 07 3e 1f af 53 bc
       0.059792772 0.05119345 0.13200796 -0.01292017
000080 22 5b 46 3d e0 e4 af bd 2c 7e d0 3d 4d 8b 8a bd
       0.048426755 -0.08588576 0.101803154 -0.06764851
000090 7a ca ab bd fe 25 71 bd e5 02 12 be cf a9 a7 3d
       -0.08388229 -0.058874123 -0.14258917 0.08186685
0000a0 05 16 a3 bd 79 4b bc 3c c7 3d 4c 3d 3a 0a 1b bd
       -0.07963184 0.022985207 0.049863603 -0.03785155
0000b0 0d 13 69 3b 55 c4 37 3d 3d 6b 87 bc fd 61 ad 3d
       0.0035564334 0.04486497 -0.016530627 0.084659554
0000c0 d0 f7 5d 3d 46 fe 45 3d 60 26 fa 3d 20 5e ed 3d
       0.05419141 0.048338197 0.12214351 0.115902185
0000d0 62 5e d7 ba 5b a2 c4 3c 82 b8 89 3b 14 b2 91 3d
       -0.0016431327 0.024003198 0.0042029032 0.07114044
0000e0 59 2f 1e bd 21 5e 76 bd dc 9c d1 3d e1 14 17 be
       -0.038619373 -0.060148362 0.10234997 -0.14754058
0000f0 8a 68 9f 3c 83 aa 19 bd 27 6b 9d bd 5b 2e 9a bd
       0.019459028 -0.03751613 -0.07686453 -0.07528373
000100 a8 6a ac bd 9e bc 1a bd 4a e5 42 3d 43 87 8d 3d
       -0.084187806 -0.037777536 0.04758195 0.06910565
000110 c0 38 08 3c 48 c9 3b 3e 08 ee 14 bd 76 78 ac 3d
       0.0083143115 0.18338501 -0.036359817 0.084214136
000120 78 0c 89 bd 75 a9 42 bd fd f2 25 3d a2 ed 8d 3d
       -0.06691831 -0.047524888 0.040514935 0.069300905
000130 a0 d7 6c bd 92 97 76 3d e4 cb aa bd 1c cf 85 3b
       -0.057822824 0.060203142 -0.0833967 0.0040835273
000140 9d a6 14 3b b1 a7 fd bd 5f b2 f0 3c 48 4a 84 bd
       0.0022682317 -0.123855 0.029381929 -0.064594805
000150 dd 93 ab bc 4c 57 07 bc 13 b5 c5 3d e8 99 6a bb
       -0.02094453 -0.008260559 0.09653678 -0.0035797302
000160 40 a7 87 bd 4c fb c0 bd 46 eb 88 bc 8a c3 73 3d
       -0.06623697 -0.09422931 -0.01671375 0.059512652
000170 ed 35 96 bd c5 67 18 3d c5 1b 2c 3d c7 65 a7 bd
       -0.07334504 0.037208337 0.04201867 -0.08173709
000180 ae 08 07 3e ad 06 26 bd 02 76 c1 3d 95 c5 64 bd
       0.13186905 -0.04053371 0.09446336 -0.05585249
000190 28 c4 b8 bd 0b 53 9a 3b 19 3c e7 3d 11 08 a4 bc
       -0.09021789 0.0047096065 0.112907596 -0.020023378
0001a0 74 bd ad bd 97 a3 ef 3b c0 4c 41 bd a6 23 73 bc
       -0.08483401 0.0073132026 -0.047192335 -0.014840042
0001b0 7a 90 45 bd 6d 4c 84 bd 67 53 85 3c 87 a8 48 3d
       -0.048233487 -0.064598896 0.01627512 0.048988845
0001c0 ed c4 a6 bd d7 7a b4 3c 89 35 07 be c2 57 c1 3d
       -0.08143029 0.02203123 -0.13204016 0.094405666
0001d0 ed b8 3a bc c2 88 40 bd 20 85 ed 3c 35 fe 9b bd
       -0.011396629 -0.047005422 0.028994143 -0.076168455
0001e0 02 1e 39 bd b8 87 a3 bd cd 85 7e 3d e1 8e 10 be
       -0.045194633 -0.07984871 0.06213932 -0.14117004
0001f0 3d e6 1c bc af 94 07 3d bf 4c 93 3d 46 0c 46 3c
       -0.009576377 0.03310078 0.071923725 0.012087887
000200 89 3b e2 3d c6 7a 43 bd 55 69 36 3d f6 db 98 bd
       0.11046512 -0.047724508 0.044534046 -0.07463829
000210 c8 d7 e3 bb f6 ba 52 bd 98 28 76 bc 1f c1 85 bc
       -0.0069532134 -0.05144783 -0.015024327 -0.016327439
000220 a4 09 dc bc d4 47 59 bd cb 94 df 3d 96 6e 82 bd
       -0.026860066 -0.053047016 0.10917052 -0.06368749
000230 2b 1f ef 3d 9b 11 85 3d 39 b8 a5 3d d1 37 0f bd
       0.11675867 0.064974986 0.08091778 -0.03496534
000240 1d 11 8f 3d f0 b3 29 bd de be f3 bc 3c 83 da 3c
       0.06985686 -0.041431367 -0.029754099 0.026673906
000250 ea 91 e9 bd a3 d4 89 3a 5a 28 a8 3d d1 06 5e bc
       -0.11404784 0.0010515641 0.082108214 -0.01355143
000260 e3 cf 6b 3d 7c c2 3f bd d0 0f 9d 3d 73 d6 b1 bb
       0.057571303 -0.046816334 0.076690316 -0.0054271757
000270 7d 35 10 3e 67 1b 2b 3d cb e7 46 3d 67 e8 b4 3c
       0.14082904 0.04177418 0.0485609 0.022083474
000280 96 4f 29 bd ad 93 c0 3c e1 31 22 bd 69 59 ad bd
       -0.041335665 0.023507917 -0.03959835 -0.08464319
000290 07 b7 32 be 9b cd 14 3e 96 33 d1 3b cd cd 4d 3d
       -0.17452632 0.14531557 0.0063843234 0.050245095
0002a0 9f 96 26 3d 99 99 03 3d b3 9b 37 3c 95 34 0b 3e
       0.040670987 0.032128904 0.011206555 0.13594277
0002b0 69 f5 e7 bc 53 ad 40 3c 70 46 f5 bc 73 2c 22 bc
       -0.028315263 0.011760074 -0.029940814 -0.009898293
0002c0 e0 9f f0 3c 85 21 1c bd ea 85 2c 3d 9b ed fa 3c
       0.02937311 -0.038117904 0.042119898 0.030630877
0002d0 d4 29 2e 3c cf 5b c3 3d db 69 4a bc 91 60 9f 39
       0.01063009 0.095389955 -0.0123543395 0.0003039879
0002e0 1a 62 e9 bc 1b 3e 22 bd cc 90 80 bd 3d e5 f3 3c
       -0.028489161 -0.03961001 -0.06277618 0.029772395
0002f0 24 88 98 3b ee 70 5c bb 8a 76 b2 3b 1d b2 e2 3c
       0.004654901 -0.0033636647 0.00544626 0.027672822
000300 b4 94 3c 3d 88 45 fd bc 0c 07 e8 bd c2 e7 cf 3c
       0.04604025 -0.030916944 -0.11329469 0.025379065
000310 d0 44 df bc 32 12 92 ba 6d af 05 3d d6 3c a8 39
       -0.027254492 -0.0011144339 0.032638002 0.00032088783
000320 f5 8d c4 3d ae fb df bc f8 61 e5 bc b9 0b 9e 3d
       0.09597389 -0.02734169 -0.028000817 0.0771708
000330 b1 45 d0 3c aa fa 27 bd 8d 86 22 be 83 cb 1d bd
       0.025423856 -0.041010536 -0.1587164 -0.038524162
000340 59 da 8f 3d 19 0a e8 bd 52 d3 7b bd 72 94 da 3c
       0.070240684 -0.11330051 -0.061480828 0.026682112
000350 0f 7d 9f 3c 16 82 c2 bd 56 2a e9 bb 00 05 5f 3c
       0.019468812 -0.09497468 -0.0071156425 0.013612032
000360 26 ab c7 bc 7e 58 99 bd 10 b7 4f 3d e7 16 01 bc
       -0.024373602 -0.07487582 0.05071169 -0.0078789955
000370 8a 32 34 bb 01 65 91 3b 45 60 b3 3c 6d 7c 13 be
       -0.0027495944 0.0044370894 0.02189649 -0.14402933
000380 0c ae 29 bd 26 92 3e bd 23 46 19 3d b9 ce 2e bd
       -0.04142575 -0.046526097 0.037420403 -0.042677615
000390 2b ff 11 bd 1d 87 a6 3d 4b 8d be bd 7c 60 09 bd
       -0.035643738 0.081312396 -0.09304293 -0.03353928
0003a0 a2 14 58 bd 83 fe e0 bc b1 1e 33 bd ba 70 84 bd
       -0.052754052 -0.02746511 -0.04373044 -0.064668134
0003b0 27 98 a2 bd b9 8b 75 bd 24 a3 33 3d 8c e2 b6 3c
       -0.07939177 -0.059947703 0.043856755 0.022324823
0003c0 94 e8 b5 bd 70 04 96 3c cf 8a c5 bb 45 76 dd bd
       -0.088822514 0.018312663 -0.00602851 -0.10813574
0003d0 fa 2b a6 bc ae 56 99 3d da e1 f1 bd 84 90 8f 3c
       -0.020284642 0.07487236 -0.11810656 0.017524965
0003e0 e8 09 48 bd 75 9a 91 bd c5 a9 53 3d a5 9f 12 bc
       -0.048837572 -0.071095385 0.051675577 -0.008949195
0003f0 b6 72 59 3d ed 10 8d 3d 29 ee 7f 3c ae 92 26 bd
       0.053087912 0.06887994 0.015620747 -0.04066723

linear1.bias f4 [128]
000000 02 7d 4d bd 72 82 1c bb 53 51 62 3d 9d d9 ce 3b
       -0.050168045 -0.0023881462 0.055253338 0.0063125626
000010 d5 82 f6 3c d2 c6 92 3d 25 49 e5 3b 39 57 6c bc
       0.030091682 0.07166828 0.006997245 -0.014425092
000020 74 c1 8e 3d f3 0d eb bc 34 dc 19 bd 62 ff 82 3d
       0.06970492 -0.028693175 -0.037563518 0.06396367
000030 44 29 95 3c 86 91 cc bc 43 cc 4e 3c 65 55 4c 3c
       0.018208154 -0.024971735 0.012621942 0.0124715315
000040 cc 0a 66 3d d3 a6 83 bd b1 13 81 bc da 01 8d 3d
       0.05616264 -0.064283036 -0.01575646 0.06885119
000050 ad a9 f9 bc 28 84 21 3d e3 9c 64 3d b1 63 5d 3c
       -0.030476416 0.039432675 0.05581368 0.013512538
000060 a5 1c 4b 3d 2d d0 92 bb f4 f7 f0 bc 17 7e 49 bd
       0.049587864 -0.004480383 -0.029415108 -0.049192514
000070 a5 e5 24 bd b4 51 eb 3c 20 d4 2f bd 21 d6 86 bd
       -0.04025807 0.028725483 -0.042926908 -0.065838106
000080 00 a7 ca bb 20 25 dd 3b ee f2 07 bd 23 29 f0 bc
       -0.0061844587 0.0067488104 -0.03319066 -0.02931649
000090 4c 4b 1b 3d a3 85 20 bd 69 b6 84 bd 83 9a 80 3d
       0.037913606 -0.039189946 -0.064801045 0.06279471
0000a0 2e 39 0c bd a1 3f 8e bc a9 ee 84 bd 9f 6e 3a 3d
       -0.03423422 -0.017364325 -0.06490833 0.045515653
0000b0 b5 c4 98 bc 29 a9 97 3b 4f 8c b3 bc 7b e3 0d 3d
       -0.018648485 0.0046283198 -0.02191749 0.03464077
0000c0 06 5c 04 3c e9 f0 74 3d cd 25 00 bd 75 af a2 bc
       0.008078581 0.059800062 -0.03128605 -0.019859055
0000d0 df 27 8f bd 6b 69 0b 3d bb 6b ea bb d8 71 07 3d
       -0.06990027 0.03403608 -0.0071539558 0.033067554
0000e0 e4 b1 1e bc 4a e5 83 3d 1c ff 75 bd e8 7d 53 bd
       -0.009685967 0.06440218 -0.060057744 -0.051633745
0000f0 65 a6 3d bd f5 c1 78 3c 35 57 78 3d 78 28 b6 3c
       -0.046301264 0.015182962 0.060630042 0.022236094
000100 93 21 77 3d 8e 3f 8a 3d bf d9 e6 3c f1 6b ee 3c
       0.060334753 0.06750403 0.028180001 0.029104205
000110 b3 b0 90 bb 6c c9 8a bd 0b 48 9f 3c 74 31 76 3d
       -0.0044155954 -0.067766994 0.019443532 0.060105756
000120 96 27 36 bc ca d6 68 3d 41 fe c5 38 1e ad d6 3b
       -0.011117836 0.056845464 9.4410505e-05 0.006551399
000130 a0 71 58 bd 50 54 36 bd b1 2a 6b bd a4 dd 83 3d
       -0.052842736 -0.044514 -0.05741376 0.06438759
000140 bf 92 f8 bb 1a fc 62 3c 58 03 57 3d 90 00 10 bd
       -0.007585853 0.013854051 0.052493423 -0.035156786
000150 6f 53 71 bd 24 79 57 3c 6a 97 8a 3d bc b7 90 bd
       -0.05891746 0.013151441 0.06767161 -0.070662946
000160 b3 67 ab 3c b0 57 8d bd 86 d8 fa bc 0f 22 90 3d
       0.020923471 -0.06901491 -0.030620825 0.07037746
000170 12 d1 f1 3c 7f 09 66 3d 32 7a 84 bd eb 8b 69 bd
       0.029518638 0.0561614 -0.064686194 -0.0570182
000180 00 30 cc bc 44 94 08 bd 67 13 65 3b 94 a8 e7 bc
       -0.024925232 -0.033344522 0.0034954192 -0.028278627
000190 f0 4d 23 bd 29 91 85 bd e7 8f 69 bd ae 76 fd 3c
       -0.03986925 -0.06521828 -0.057022 0.03094038
0001a0 04 b0 14 3d ec 4d ad 3c a1 8a d1 3c 79 3f eb 3b
       0.036300674 0.02115532 0.025578799 0.0071791974
0001b0 b6 d6 2c 3d f9 34 53 3d 44 8c 6c 3d c3 ea 7d bd
       0.04219695 0.05156419 0.057750955 -0.061991464
0001c0 98 ba 83 3d d2 df 3b 3d ec cf 78 bd a5 cb 34 3a
       0.06432074 0.04586775 -0.060745165 0.00068968005
0001d0 d0 bb 34 3d 58 d6 2e bd f4 79 6e bd 66 e8 8c 3d
       0.044124424 -0.042684883 -0.058221772 0.06880264
0001e0 9e 07 75 3d 5d 4b b7 bc 4b 32 8f 3b e9 71 25 3d
       0.059821717 -0.022374803 0.004370009 0.040391836
0001f0 fd 47 87 bd 76 cb 2d bc 6e 51 c1 bc db 0b 86 bd
       -0.066055275 -0.010607591 -0.023598399 -0.0654523

linear2.weight f4 [64, 128]
000000 c0 83 c3 3d 5a 9c a9 bb d7 f9 b0 bd 95 68 12 bd
       0.09546614 -0.0051761093 -0.08641403 -0.03574427
000010 d2 80 84 3a 1d 0b 93 bc 89 56 09 3d 91 2d e4 bd
       0.0010109192 -0.017949635 0.033529792 -0.111415036
000020 db 1a 07 bd 29 6d 79 3c 15 ea 1b be c5 97 28 3d
       -0.032984596 0.01522378 -0.15226014 0.041160364
000030 71 1a 90 3c b5 55 f5 3c 2c d2 2b be 09 bf 60 bd
       0.017590733 0.029948095 -0.16779393 -0.054869685
000040 16 f3 19 be 24 29 03 3d 00 c7 57 bb fc cd 77 3b
       -0.15034136 0.032021657 -0.003292501 0.0037811985
000050 97 12 33 bc bc ec ac 3c 1f 5a 92 bc 13 4e bd 3b
       -0.010929725 0.021108977 -0.017865239 0.0057771294
000060 04 7f 2a 3d fb bf e2 3d d3 b1 b8 bd 88 1d 59 3d
       0.041625038 0.110717736 -0.09018292 0.05300668
000070 7d c8 95 3d 76 9a af bd f4 5f a8 3d f8 48 2f bd
       0.07313631 -0.08574383 0.082214266 -0.042794198
000080 fa e6 72 3d 0d e1 a4 bd dd 24 1f 3d 3e aa 4a bd
       0.059302308 -0.080507375 0.038853515 -0.04947876
000090 fe 7f e0 b9 79 af 8f 3d 46 ce 9c 3c 77 8a 9d 3d
       -0.0004281997 0.07015891 0.019141328 0.07692426
0000a0 93 2c fd 3a fd 76 18 be 28 7a 5b bd 7e 85 3c bd
       0.0019315652 -0.1488914 -0.053583294 -0.046025746
0000b0 d1 58 6e 3d c9 54 9a 3c dc 5e 76 bd 32 6a 87 bc
       0.05819017 0.018839257 -0.06014906 -0.01653013
0000c0 4f 9a 30 bd ae 1a f3 bd 60 b7 a1 3a 2f 73 30 3c
       -0.04311591 -0.11870323 0.0012337975 0.010769649
0000d0 8b 22 85 bd bf e2 7f bc 5e 08 40 3c 7b 47 a9 3d
       -0.06500729 -0.015618025 0.011720745 0.08265587
0000e0 37 34 e4 3c 68 db bc bc f0 4e 35 bd 89 5e 65 3d
       0.02785693 -0.02305384 -0.044264734 0.05599836
0000f0 11 a6 b0 bc e9 38 5e 3d 91 4e de bd 38 7a 4f bd
       -0.021563562 0.054253493 -0.10854829 -0.050653666
000100 80 c0 32 bd 06 d1 05 3d 7a f6 48 b9 a7 5f 1b 3c
       -0.043640614 0.032670043 -0.00019165306 0.0094832545
000110 f3 e2 1d be f4 0f 1e be 2d 9f 17 bd 9e ae 67 3d
       -0.15418606 -0.15435773 -0.037017036 0.056563012
000120 56 1b 63 bb c9 e4 83 3d fc cf f9 bd d9 69 82 3d
       -0.0034653745 0.06440122 -0.12197873 0.06367845
000130 bc 3e d9 bd fa a6 b0 bc b8 b8 d9 ba 33 d6 8b bd
       -0.10607669 -0.021563996 -0.0016610837 -0.06827965
000140 f7 50 73 bd 1e f8 d2 bd 5d 47 08 be 59 9f 25 3d
       -0.059403386 -0.10301231 -0.13308473 0.04043517
000150 a8 18 03 3b b8 c7 18 bd ba f1 6e bd 93 f8 d8 bd
       0.002000371 -0.03729984 -0.058335997 -0.10594287
000160 a0 22 96 bd 25 a7 84 3c 7e 03 d0 bd bd 69 44 3d
       -0.07330823 0.016192982 -0.10156916 0.047952402
000170 9a 74 3b 3c 72 c3 32 bd 02 34 8e bc b8 af 99 bc
       0.011441374 -0.043643422 -0.017358784 -0.018760547
000180 b7 39 c6 3d f2 2d 31 bd 97 81 b8 bc 01 f6 76 bc
       0.09678977 -0.043256707 -0.02252273 -0.0150733
000190 a9 b8 23 3d 07 5d 6a bd 24 5a e1 bc bc 58 51 ba
       0.039971028 -0.057217624 -0.027508803 -0.000798594
0001a0 35 ed 15 bd 01 3a 74 bd 9c 52 1a bd 9f 0c 75 bc
       -0.03660317 -0.05962563 -0.03767644 -0.014956622
0001b0 77 df 96 bb 09 a6 35 bd 31 29 4c 3d 13 b0 98 bd
       -0.004604276 -0.044347797 0.04984397 -0.074554585
0001c0 dd ad e4 3c 8e 0a b6 3d ee dc 18 bd f5 b1 53 3a
       0.027914936 0.08888732 -0.03732007 0.0008075529
0001d0 79 25 a1 bd 29 0a b5 3d 9b ad 18 bd b7 08 5f bc
       -0.078684755 0.088398285 -0.037274938 -0.013612918
0001e0 12 8f 17 3d 4b b7 3e bc 52 7e 88 bd 7e 67 45 bd
       0.037001677 -0.01164038 -0.06664719 -0.0481944
0001f0 c5 e9 5b bd 70 c9 c5 bc 28 0c 87 3d a5 87 69 3c
       -0.053689737 -0.024143904 0.065941155 0.014253532
000200 9c 6b 52 be 63 4b e4 bc cd 3c 46 3d 69 53 07 bd
       -0.20548862 -0.027867978 0.048397828 -0.03303853
000210 1a 4b a1 3c e8 eb 0e bd 68 ec 0b bb f9 59 01 bc
       0.019689132 -0.034892946 -0.0021350626 -0.007894986
000220 5c 0a 5d 3c c8 5e 00 bd d9 b5 89 3c 47 d5 ab bd
       0.013491239 -0.03134039 0.016810345 -0.08390289
000230 c1 1b 1c 3e fb 42 65 be 61 6b 7a bc da 63 47 bd
       0.15244962 -0.22388832 -0.01528439 -0.04867921
000240 1a fd 0d bb 1b 3f be bc 4f 5d eb bd 9e 56 f8 3c
       -0.0021665753 -0.02322345 -0.114924066 0.03031474
000250 69 dd f2 3d 26 29 f1 bd 9a 4f 9f bd eb 75 af bd
       0.11858637 -0.117754266 -0.07778855 -0.08567413
000260 b5 21 b5 3d 31 7a d3 3c a9 bf 2a 3d 0a 03 da bd
       0.0884432 0.025815101 0.041686688 -0.10645111
000270 8d 63 7b 3c 9c b8 67 3d 62 1c 90 3c 5b 1c 5b bd
       0.015343559 0.05657254 0.017591659 -0.05349384
000280 2a 33 d4 bd fe 47 b3 bd 05 d3 a5 bd f9 fd 37 3d
       -0.10361321 -0.08753966 -0.080968894 0.04491994
000290 35 f3 55 bd c3 1b 09 be d1 51 fd bd 2d 88 e2 3d
       -0.052233893 -0.13389497 -0.12369121 0.1106113
0002a0 66 34 85 3d 7c fe 79 3d d7 08 ba bd 4b b3 96 bd
       0.06504135 0.06103371 -0.09083717 -0.07358416
0002b0 c0 80 b0 3c 2d 54 10 bd 69 dc 19 bb 38 88 ca 3c
       0.021545768 -0.035236526 -0.0023477322 0.024723157
0002c0 67 91 23 3d 8a 51 af bd 84 f3 30 be f1 5e b5 3d
       0.03993359 -0.08560474 -0.17280394 0.08855999
0002d0 50 89 3b be 83 f5 7a bb 76 ee 03 be c1 2f f4 bc
       -0.183141 -0.003829331 -0.12883934 -0.029807927
0002e0 e9 be 81 bc d0 d7 42 be ef d2 a8 bd 1f c7 c9 3c
       -0.015838103 -0.19027638 -0.082433574 0.024631081
0002f0 d5 e9 d5 3c 60 c1 b3 bc cd a1 c0 bd 27 5c 9e bc
       0.026112476 -0.021942794 -0.09405861 -0.019331051
000300 bf 39 42 be 50 ca 81 3c 99 78 eb 3c 1f 48 b7 bc
       -0.18967341 0.01584354 0.028744029 -0.022373257
000310 a3 86 df 3c 47 d3 53 3d f1 25 fa bd 6f c5 4a bd
       0.02728588 0.05171516 -0.12214268 -0.049504694
000320 1a bb 09 bd 1b 27 f0 bd fa 1e 4a 3d aa b2 14 be
       -0.0336257 -0.11726209 0.049345948 -0.1452128
000330 4f ae c6 bc 39 66 aa 3d ae 53 c5 bc 04 40 fa 3d
       -0.024253039 0.08320279 -0.024087753 0.12219241
000340 4d 0c 19 be c6 7e 11 bd 81 96 81 bd a4 f1 24 3d
       -0.14946099 -0.03552129 -0.063275345 0.04026951
000350 dc 40 fe 3c 6a f1 b7 bd 21 5c 31 3d d2 17 1a 3c
       0.031036787 -0.08981593 0.04330075 0.009405093
000360 e4 cb 2a be 9c 05 35 be dd 73 90 bd fb 89 2b be
       -0.1667934 -0.17677921 -0.07053349 -0.16751854
000370 b6 8e 6f bd f7 38 e5 bb e5 b7 5b 3d c6 f1 dd bc
       -0.05848571 -0.006995316 0.053642172 -0.027092826
000380 e4 ed d1 bd 1d 8d f5 bc 42 2e 98 3d 38 e6 64 be
       -0.10250452 -0.029974515 0.07430698 -0.22353446
000390 24 ff 6b 3d 83 f2 54 3c 05 72 0e bb 6d c5 83 3d
       0.057616368 0.012997272 -0.0021735441 0.0643414
0003a0 86 44 df bd 5c 06 33 3c c9 2c eb 3c 33 a6 8f bd
       -0.10901742 0.010926809 0.028707879 -0.07014122
0003b0 04 b0 42 bd 36 6a b2 3d b1 db 54 3d ad e6 e8 3d
       -0.047531143 0.087116644 0.051967327 0.11372123
0003c0 b1 52 ee 3d 8a 13 99 bd f6 3b 80 bd c1 38 ee bd
       0.11636866 -0.0747443 -0.06261437 -0.11631919
0003d0 69 e0 3d bd af 5b 7b bd 2f 61 2e 3d 18 6b 02 3d
       -0.046356592 -0.061366733 0.04257315 0.031840414
0003e0 0e 97 e6 3d fe 50 f9 3b 7f 00 8f 3c 69 2d 2a be
       0.1125928 0.007608532 0.017456291 -0.16618885
0003f0 38 8d 31 3d 76 57 00 bd fe 67 bf bd bc bc e0 3d
       0.043347567 -0.03133341 -0.09346007 0.10973498

linear2.bias f4 [64]
000000 14 c1 67 bd e5 54 e1 3a 5c ad ba ba ed 91 97 bb
       -0.056580618 0.0017191438 -0.0014242339 -0.00462555
000010 7a 32 10 3d 3f 50 00 bd c0 89 28 3c 01 b5 67 bc
       0.03520439 -0.03132653 0.010286748 -0.014142276
000020 ab a0 80 3b 21 26 ad 3d de 3d a3 3c c0 96 7b bd
       0.003925403 0.08454538 0.019926962 -0.061423063
000030 70 90 bc 3b d0 55 9f bd 89 d5 a9 bd 77 c7 26 3c
       0.005754523 -0.07780039 -0.08292682 0.010179392
000040 d5 37 ae bb f1 cc 77 bd 51 d7 21 bd 3b db 94 3d
       -0.0053167143 -0.06049818 -0.039511982 0.072683774
000050 2a 35 81 bd b6 a4 24 bc 89 df 9d 3d b1 ed b2 3c
       -0.06308968 -0.010049036 0.077086516 0.021841856
000060 fc a8 80 3d 28 31 b4 3d 91 a1 1e 3d 18 a1 a0 3d
       0.06282231 0.08798438 0.0387283 0.07843226
000070 65 7a c7 bc 0c 12 9f bd e0 0e fd 3c f6 b9 43 bd
       -0.024350354 -0.07767114 0.030890882 -0.047784768
000080 1a 56 8e bd cb 77 1c bd 9d b2 de ba 37 04 a3 3d
       -0.06950016 -0.03820018 -0.0016990487 0.07959788
000090 a8 f8 b0 3b c0 e9 96 bd d1 63 a4 bc 6e 0d 25 3d
       0.005400736 -0.07368803 -0.020067127 0.04029601
0000a0 94 1c e6 bc 67 f4 9c 3d 8c b4 29 3d f6 c9 8e 3d
       -0.028089799 0.076638035 0.04143195 0.06972115
0000b0 3c 38 3e bd bf bb cc bc e5 01 12 3d 30 af 85 3c
       -0.046440348 -0.024991868 0.035646338 0.016318887
0000c0 41 22 18 bd 44 8f 3d 3d 54 75 c1 bc 70 e9 8e bd
       -0.037142042 0.046279207 -0.023615517 -0.069781184
0000d0 93 6e be bb 2b 82 ec bc a5 ea 81 3c 65 fa cc 3c
       -0.0058115213 -0.028870663 0.015858958 0.025021741
0000e0 a0 a4 9f bd d8 41 36 bd a5 83 c4 bc 43 ea 22 3d
       -0.077950716 -0.044496387 -0.023988554 0.03977419
0000f0 77 14 c0 3c d6 0e aa 3d 06 6f 75 3d 49 96 9f 3d
       0.023447258 0.08303611 0.059920333 0.077923365

throttle1.weight f4 [32, 64]
000000 4f fb 12 bd b5 8e 04 be 84 13 0d be 77 4c 42 bd
       -0.035884198 -0.12945063 -0.13776976 -0.047436204
000010 97 f5 01 be 90 0a 86 bd 12 4b ae 3d d4 a4 c3 bb
       -0.12691341 -0.065449834 0.08510412 -0.005970577
000020 9f e4 b3 bd c2 ef 52 3d 49 15 a3 3d f9 b7 dc bd
       -0.087838404 0.051498182 0.07963044 -0.107772775
000030 9a a0 2e bd 71 dd 85 3d e1 34 6e bd d4 80 01 3d
       -0.04263363 0.06536377 -0.058155898 0.031617
000040 eb ba c8 bd 6d e1 8e bd 85 34 1a 3d 59 94 63 3d
       -0.09801277 -0.0697659 0.037647743 0.055561397
000050 79 56 f0 bd c4 93 ee 3b 19 a9 59 bd e9 08 97 3c
       -0.11735243 0.0072807986 -0.05313978 0.018436866
000060 b3 e7 bc bd 2c b0 43 bd 2c 8d 9d bc 0c f4 ac 3d
       -0.092238806 -0.047775432 -0.019232355 0.08444986
000070 81 58 d9 bd 13 92 4a bc 87 ea d0 bd d9 90 9f bd
       -0.10612584 -0.012363928 -0.102009825 -0.077912994
000080 54 6c 1e bd 41 6d 83 bd 50 ba a3 3d 53 a9 12 3d
       -0.03867753 -0.06417323 0.07994521 0.03580601
000090 1a 2d ca bd 16 fb 05 bc fb 6d 1b bc a5 c1 87 3d
       -0.09871884 -0.008177539 -0.009486671 0.06628732
0000a0 e8 c8 d6 bd df f2 4f 3d e7 1b c3 bd 41 16 a6 bd
       -0.104875386 0.05076873 -0.09526806 -0.08109713
0000b0 da d4 1a bd e9 58 9f bd 8b 6b c2 bb a5 51 ac 3d
       -0.037800647 -0.0778063 -0.0059332303 0.0841401
0000c0 98 f0 8a bd fd b0 48 bd b0 5b 86 bc d8 2b 08 be
       -0.06784171 -0.048996914 -0.016401142 -0.13297975
0000d0 9c cb ad bd 07 09 a2 bc 2f 95 42 bd d0 eb c9 bd
       -0.08486101 -0.019779695 -0.047505554 -0.09859431
0000e0 e4 1d 68 3d 5f 1b fc 3c 61 4a 24 3d 59 26 86 bd
       0.05666913 0.03077477 0.040109996 -0.06550283
0000f0 92 ff 8f bb 46 b2 3f bd c5 58 d9 bc 40 3e 55 3d
       -0.00439448 -0.046800874 -0.026531586 0.05206132
000100 6e 76 71 3d c7 8a d3 bd 24 d0 c2 bd 8f b8 42 3d
       0.058950834 -0.10329204 -0.09512356 0.04753929
000110 a2 59 09 3d 65 4f 90 3d 44 69 bf bd f2 55 f8 3b
       0.033532746 0.07046393 -0.0934625 0.007578605
000120 96 b3 37 bc e0 f6 ac 3d aa 3e 4b 3d d0 18 19 bd
       -0.01121225 0.08445525 0.049620308 -0.03737718
000130 14 b4 83 bd 69 83 0e 3d f3 2d 02 bd 6e 0d 81 bd
       -0.064308316 0.03479329 -0.0317821 -0.0630139
000140 76 58 5c 3d 92 21 04 be 6d 79 29 bd 03 f1 e7 bd
       0.0537953 -0.12903431 -0.041375566 -0.11325266
000150 5b 82 26 bd 8f 31 c9 bd 42 1c 8e 3d f9 0d 93 bc
       -0.04065166 -0.09823906 0.069389835 -0.017950999
000160 ea 8b c0 bd 13 cc 7d bd 4e 22 11 be c1 ad 1f bd
       -0.094016865 -0.0619622 -0.14173242 -0.038984064
000170 5d 03 d8 bb 9f a0 a4 3d 97 40 b3 bd 6d d5 94 ba
       -0.006592198 0.080384485 -0.08752554 -0.001135511
000180 68 fc b7 3d ea 57 b3 bd a3 37 a9 bd a5 33 89 3d
       0.089836895 -0.08757003 -0.08262565 0.066993035
000190 ef d2 5e 3d 34 95 28 3d 95 b6 ed bd bc a2 46 3d
       0.05440038 0.041157916 -0.116070904 0.04849504
0001a0 be f7 e5 3c 4f c3 99 bd 26 1d 9a 3a 2b 68 e8 3d
       0.028072234 -0.07507955 0.0011757954 0.113479935
0001b0 92 94 22 3a e7 a3 61 3c 97 62 ff bd 5c 1c a8 bd
       0.0006201948 0.0137719875 -0.124699764 -0.08208534
0001c0 0e 9d b8 bd bb 8b 65 3d 9e 6e f3 bd ec 8c 39 3d
       -0.09014331 0.05604146 -0.11886333 0.04530041
0001d0 32 ab 5d 3c 19 e3 d5 bd b1 97 5e 3d 8e e3 b9 bd
       0.013529586 -0.10443706 0.054343883 -0.09076606
0001e0 89 f2 0b bc af 6d 66 3d 7e ea cc bc 3f 56 d6 bd
       -0.008541712 0.056256946 -0.025014158 -0.10465669
0001f0 d8 e2 10 3d d3 7c dd bd 13 62 cf bd 06 eb 34 3d
       0.035372585 -0.10814824 -0.10126128 0.04416945
000200 24 b0 49 3d 50 a6 a8 bb 13 18 d6 ba f2 70 86 bd
       0.049240246 -0.005146779 -0.0016334079 -0.06564511
000210 91 d3 ce 3d 99 d7 b8 bc f6 b4 6b 3c 97 75 8f bd
       0.10098947 -0.022563742 0.014386406 -0.0700485
000220 c4 e5 30 3d 61 a4 83 3d 0d 20 da bd c0 02 bd bd
       0.04318787 0.06427837 -0.106506445 -0.0922904
000230 61 34 b0 bd 88 02 5a 3d cd d2 c9 bd 16 29 b0 bd
       -0.086037405 0.05322507 -0.0985466 -0.086015865
000240 9c 16 63 bd 8b 86 65 bd fa 2b d8 bd 17 97 a0 bc
       -0.055441484 -0.056036513 -0.10555263 -0.019603295
000250 79 c6 ed bd 3c 67 e9 bc 8c 02 c2 bc ef ce 5f bd
       -0.11610121 -0.028491609 -0.023682855 -0.054640707
000260 33 14 9b 3c f9 22 50 3d 5b 8e dc bc 32 9b 43 3d
       0.01893053 0.050814603 -0.02692335 0.047755428
000270 58 de 65 3d 90 40 39 3c d1 32 70 bc 28 57 1c bc
       0.056120247 0.011306897 -0.014660553 -0.009542264
000280 ad 13 99 3d 6d 1c 4a bd 8e 00 53 bc aa 17 45 ba
       0.07474456 -0.049343515 -0.01287855 -0.000751848
000290 47 91 f7 bc 6a 42 a5 3d e8 11 c9 bd 81 7a 87 bd
       -0.03022064 0.08069308 -0.098178685 -0.06615163
0002a0 bb ec 2c bc 82 19 11 3b 57 5d 54 3d 56 ae 6f 3d
       -0.010554488 0.0022140448 0.05184683 0.05851587
0002b0 d9 45 fe bc 8d 7a 0a 3d 10 e8 b6 bd 9c d6 7e 3d
       -0.031039165 0.03380828 -0.08930981 0.062216386
0002c0 fb b1 75 bc 82 d4 37 bd 7b 01 94 3c 1a 35 af bd
       -0.014996047 -0.044880398 0.018067112 -0.0855505
0002d0 16 f7 ce 3c 0c 69 51 3d 56 47 16 bd 20 db 3d 3d
       0.025264304 0.05112557 -0.036689125 0.046351552
0002e0 b6 5e 7c 3d 12 e1 d6 bd 34 c8 12 bc 98 36 30 3d
       0.06161376 -0.104921475 -0.008958865 0.043020815
0002f0 c6 12 3a bd e6 79 9f bd f3 7e ff bc 02 a6 14 bd
       -0.04542806 -0.07786922 -0.031188464 -0.03629113
000300 00 9d 90 bd c2 22 42 3d 6c cc 45 3d 2d b8 d7 3b
       -0.070611954 0.04739643 0.048290655 0.0065832348
000310 91 6e 2d be 03 96 34 3d f2 f5 7f bd b1 55 a7 3c
       -0.16936709 0.044088375 -0.06249041 0.020426603
000320 d0 1d 70 bd aa b4 96 bd 04 97 dd 3b 72 c6 1d 3d
       -0.05862218 -0.07358678 0.006762387 0.03851933
000330 37 c3 c2 3c 9f 8f 7d 3d 3e 88 a5 3a ee 5e 00 3d
       0.023774726 0.061904546 0.0012629104 0.031340532
000340 f7 97 be bd 52 de ca bb 6f 79 ec 3d d8 9e 99 bd
       -0.09306329 -0.0061910534 0.11546599 -0.07501
000350 13 4c b5 bd 1a af 68 bd ce 46 87 bc 84 cd c9 3d
       -0.08852401 -0.056807615 -0.016513254 0.09853652
000360 5b df c7 3c 3f 08 ab 3d 2f 5f 05 bd 79 b5 aa bd
       0.024398496 0.08351182 -0.032561477 -0.083353944
000370 d5 df 80 3d 62 1b bc 3c e2 e8 d0 3c e0 5d 6c 3e
       0.062926926 0.022962276 0.025501672 0.23082685
000380 a9 9b d8 bd 84 ba f7 3d bc ac bf 3d 66 23 18 3d
       -0.10576565 0.12096122 0.09359118 0.037143134
000390 4a c1 6d bd 1a 04 87 3d 02 61 3f bd 55 c5 70 bd
       -0.058045663 0.06592579 -0.046723373 -0.05878194
0003a0 6f 3b 1f be 69 07 fe 3b c0 10 a3 3d ae b6 8d 3d
       -0.15550016 0.007752348 0.07962179 0.06919609
0003b0 6f 0f b2 bd 16 3d f3 bd 67 a4 21 be 7c 22 45 bd
       -0.0869435 -0.118768856 -0.15785371 -0.04812859
0003c0 ed 25 b0 bd ec 08 a1 bc c2 0a 4d bd 0f 64 69 3d
       -0.08600984 -0.019657575 -0.050059088 0.05698019
0003d0 09 a4 a2 3d 11 72 19 be 5a 5d a1 bd 55 87 3d bd
       0.079414435 -0.14984919 -0.078791335 -0.04627164
0003e0 50 9b a0 3b 62 ac 2c 3d 7f c3 84 3c d0 65 28 be
       0.004901327 0.042156585 0.016206501 -0.16445088
0003f0 a0 c2 9c bd 1e bd 05 be 0e 9d 67 3d fa b6 ce bd
       -0.07654309 -0.13060424 0.056546263 -0.10093494

throttle1.bias f4 [32]
000000 aa 2d ac 3c cc b9 b9 bd bc 6f 9c 3d 23 a8 44 bd
       0.021017868 -0.09068641 0.07638499 -0.04801191
000010 5e 3a c5 3c 6a ec ce 3c 94 35 b7 3d 89 eb de bd
       0.024075683 0.025259215 0.08945766 -0.108847685
000020 1a fd 90 bd da 9b 08 bd b9 84 d0 3c b5 b1 23 bd
       -0.07079525 -0.033351757 0.025453912 -0.039964397
000030 49 cd 65 bd cf 4b 23 bd 5a 52 a4 3a 90 ca 19 be
       -0.05610398 -0.03986722 0.001253675 -0.15018678
000040 75 7f ad 3d 97 eb 22 3d 8e 70 68 bd 65 54 e4 3d
       0.08471576 0.039775457 -0.056747966 0.111489095
000050 46 a7 a5 3d 98 d6 08 be 6d d9 71 bc 12 0f ff bc
       0.080885455 -0.13363111 -0.014761311 -0.031135116
000060 70 0d f6 bd 07 18 3d 3d d9 96 06 be 97 b8 b1 bd
       -0.12014282 0.046165492 -0.13143481 -0.08677786
000070 1f dc b1 3c f4 f1 b9 3d 62 b0 cc bc f8 27 7b bd
       0.021711407 0.09079352 -0.02498645 -0.061317414
