02_Models/self_driving_model_blaufilter.onnx (onnx, 440240 bytes, 24 tensors)

line_batch1.weight f4 [128]
1.0405047 0.9757324 0.9957378 0.9824118 1.0143206 1.0292417 1.0358187 0.9752023
1.012308 0.9757051 0.99007696 0.9897328 0.9747798 0.990252 0.9917703 1.0004852
0.9816462 0.9769851 1.0303395 1.029737 0.9753804 1.0308551 1.0000172 0.99769026
1.0170043 1.0400393 0.9867786 0.98887485 1.0002654 0.97285926 1.0036062 0.99046415
1.0080181 1.0033587 1.026999 1.0058905 0.9878841 1.0091684 1.0464001 1.0005007
1.0393438 0.99335474 0.981212 1.0249164 1.0117208 1.0439109 0.9998792 0.9610974
0.97995305 1.0205983 1.0012826 0.9700112 0.96977043 1.0078348 0.9766309 0.99561423
1.0120059 0.966918 0.99757636 0.9826003 1.0153842 0.99070233 1.0032756 1.0072501
1.0156074 1.0260317 0.98016024 0.98707473 1.0203841 0.9752056 0.9963335 0.9546052
1.0206432 1.0133569 1.0310543 0.9882197 0.9803474 0.990547 1.0566931 1.009193
1.0014813 0.9790687 0.9980114 0.9758707 0.9771499 1.0045766 0.988546 1.0258564
1.0306089 0.98799634 0.9875373 0.9877494 0.96489483 1.0048484 1.0332326 1.0014641
0.9864517 1.0001504 1.0465354 1.0428486 1.0082556 1.0123394 0.98644334 1.0022098
0.97928685 1.0033364 1.0199735 0.9821174 1.0034196 1.0036943 1.0058453 1.0184871
1.0027529 1.0332979 1.0029047 1.0063906 0.99813646 1.0031087 1.003425 1.0072473
1.0310953 0.96805394 0.9642299 0.97564167 0.9901595 0.9686341 1.0003303 1.0049285
00000000: 422f 853f 99c9 793f ace8 7e3f 577f 7b3f
00000010: 42d5 813f 31be 833f b595 843f dca6 793f
00000020: 4f93 813f cfc7 793f af75 7d3f 215f 7d3f
00000030: 2b8b 793f 2881 7d3f a9e4 7d3f e60f 803f
00000040: 2a4d 7b3f b21b 7a3f 2ae2 833f 6cce 833f
00000050: 88b2 793f 0ff3 833f 9000 803f a168 7f3f
00000060: 322d 823f 0220 853f 869d 7c3f e726 7d3f
00000070: b208 803f 4e0d 793f 2b76 803f 0f8f 7d3f
00000080: bd06 813f 0f6e 803f b474 833f 05c1 803f
00000090: f9e5 7c3f 6e2c 813f 70f0 853f 6810 803f
000000a0: 3809 853f 7f4c 7e3f b630 7b3f 7630 833f
000000b0: 1180 813f df9e 853f 15f8 7f3f 7b0a 763f
000000c0: 34de 7a3f f7a2 823f 072a 803f a752 783f
000000d0: e042 783f bb00 813f 7c04 7a3f 93e0 7e3f
000000e0: 6989 813f f087 773f 2a61 7f3f b18b 7b3f
000000f0: 1cf8 813f ab9e 7d3f 566b 803f 92ed 803f
00000100: 6cff 813f 0255 833f c8eb 7a3f eeb0 7c3f
00000110: f29b 823f 13a7 793f b60f 7f3f 0261 743f
00000120: 70a4 823f aeb5 813f 96f9 833f f7fb 7c3f
00000130: 0cf8 7a3f 7d94 7d3f b841 873f 3c2d 813f
00000140: 8a30 803f 3fa4 7a3f ad7d 7f3f aad2 793f
00000150: 7f26 7a3f f795 803f 5a11 7d3f 434f 833f
00000160: feea 833f 54ed 7c3f 3fcf 7c3f 25dd 7c3f
00000170: 5903 773f df9e 803f f740 843f fa2f 803f
00000180: 1988 7c3f ee04 803f dff4 853f 107c 853f
00000190: 850e 813f 5694 813f 8d87 7c3f 6948 803f
000001a0: 8bb2 7a3f 546d 803f 7e8e 823f 0c6c 7b3f
000001b0: 0e70 803f 0e79 803f 8abf 803f c95d 823f
000001c0: 355a 803f 1b43 843f 2e5f 803f 68d1 803f
000001d0: df85 7f3f de65 803f 3b70 803f 7bed 803f
000001e0: eefa 833f 62d2 773f c5d7 763f a7c3 793f
000001f0: 187b 7d3f 68f8 773f d30a 803f 7fa1 803f

line_batch1.bias f4 [128]
0.031218283 -0.0042979657 0.011043119 -0.037401225 0.012447408 0.016002223 0.017289165 -0.016319606
0.002832543 -0.024196524 0.0037569006 -0.0048959497 -0.0036062305 -0.011252456 0.00043797152 -0.00071623584
-0.016060289 -0.005310521 0.034011245 0.02289093 -0.0062849955 0.04117908 -0.026144696 0.013629813
0.025945576 0.020679144 -0.011493631 -0.0048518744 -0.006319998 -0.02107128 0.001564162 -0.0077800467
0.024754789 -0.001181387 0.022023942 0.005445589 0.0029430944 0.011298785 0.04402361 -0.0028735923
0.034618974 -0.008921155 0.010044119 0.035939008 0.00054587447 0.04619149 -0.0060051945 -0.023865944
-0.0011663651 0.017449234 -0.00046633484 -0.033869937 -0.005583068 0.02747855 -0.018926442 0.018073697
0.014684986 -0.0144967595 -0.00724151 -0.0029176106 0.023337435 -0.00010293508 -0.014186136 0.0050389497
0.0025768422 0.0031566753 -0.004710727 -0.0019004669 0.027116077 0.0021674344 0.020818738 -0.041557986
0.011814524 0.035999488 0.05516596 -0.0054074717 0.011401144 -0.005298167 0.03733076 0.02312394
0.018533414 -0.020665566 -0.00801144 -0.01221061 -0.028151177 -0.0020145539 -0.011444059 0.010417245
0.03510507 -0.0010198785 -0.014761429 0.006513542 -0.010323901 0.0071951426 0.021578742 -0.0025845834
-0.008172625 -0.004444151 0.035925623 0.051422816 0.022935819 0.008883643 -0.005478543 0.008841104
-0.00784146 0.0018626275 0.008233036 -0.014243898 0.0039246725 0.019322243 -0.0026746306 0.022085879
0.006673791 0.008852763 0.015543837 0.018799033 -0.0034724104 -0.011696944 0.02496216 -0.0019925826
0.03789262 -0.022749621 -0.029503342 -0.008727319 -0.006001762 -0.01625547 -0.006732809 0.0043439087
00000000: 7cbd ff3c f3d5 8cbb 33ee 343c 0732 19bd
00000010: 37f0 4b3c 1817 833c 02a2 8d3c b2b0 85bc
00000020: 30a2 393b ca37 c6bc 5536 763b 346e a0bb
00000030: 8256 6cbb 395c 38bc 8b9f e539 c6c1 3bba
00000040: de90 83bc e103 aebb 604f 0b3d c285 bb3c
00000050: 5df2 cdbb 65ab 283d 672d d6bc 944f 5f3c
00000060: d18b d43c 4f67 a93c c84f 3cbc 79fc 9ebb
00000070: fc17 cfbb ad9d acbc 9104 cd3a c3ef febb
00000080: 8eca ca3c c5d8 9aba 8e6b b43c e970 b23b
00000090: eee0 403b 8a1e 393c 1a52 343d e152 3cbb
000000a0: a0cc 0d3d 092a 12bc 1790 243c c834 133d
000000b0: 0419 0f3a 4a33 3d3d 39c7 c4bb 8382 c3bc
000000c0: b8e0 98ba b2f1 8e3c 677e f4b9 34bb 0abd
000000d0: 2bf2 b6bb b21a e13c a00b 9bbc 4a0f 943c
000000e0: 4c99 703c d183 6dbc 304a edbb 6235 3fbb
000000f0: 262e bf3c dade d7b8 f86c 68bc c61d a53b
00000100: 3de0 283b 39e0 4e3b 715c 9abb 1619 f9ba
00000110: 8922 de3c 840b 0e3b 0f8c aa3c b538 2abd
00000120: b591 413c 3374 133d b4f5 613d 2931 b1bb
00000130: ddcb 3a3c 3f9c adbb 24e8 183d 6b6e bd3c
00000140: 63d3 973c d54a a9bc 6a42 03bc 030f 48bc
00000150: 4c9d e6bc 9b06 04bb dd7f 3bbc 18ad 2a3c
00000160: 55ca 0f3d 72ad 85ba ecd9 71bc 8d6f d53b
00000170: 9425 29bc 3bc5 eb3b e7c5 b03c 1d62 29bb
00000180: 79e6 05bc 3ea0 91bb bf26 133d bba0 523d
00000190: e6e3 bb3c b38c 113c 5a85 b3bb 47da 103c
000001a0: 7879 00bc 6823 f43a dbe3 063c 3d5f 69bc
000001b0: 8a9a 803b ae49 9e3c db48 2fbb 72ed b43c
000001c0: d1af da3b 2e0b 113c 94ab 7e3c 6e00 9a3c
000001d0: 6191 63bb 8aa4 3fbc 727d cc3c fd95 02bb
000001e0: 4b35 1b3d 6a5d babc feb0 f1bc 07fd 0ebc
000001f0: 6eaa c4bb 312a 85bc e59e dcbb 5957 8e3b

line_batch1.running_mean f4 [128]
-0.23443691 -0.37224746 -0.10372301 -0.0077582635 0.8336773 0.48078644 0.017746603 -0.20733592
0.23234336 -0.7584267 -0.25485194 -0.33936712 -0.4265033 -0.4906341 0.09716412 -0.22089642
0.21036354 -0.4906213 -0.058247786 0.5032844 0.18693194 -0.26364636 0.12828583 0.011611122
-0.15379436 0.49767187 0.18689126 -0.49501812 0.07301393 -0.39930275 -0.04772234 -0.23191608
0.31368476 -0.4003554 0.08211072 0.4233611 -0.28280735 0.014048645 -0.031627603 -0.109130114
0.5662925 0.18748914 -0.011379528 -0.23028131 0.34685835 -0.6345098 0.21953346 -0.26340327
-0.13108683 -0.008720898 -0.2566719 0.26441005 -0.36118796 -0.2284985 -0.10157783 -0.18641946
-0.6132143 -0.48775163 -0.19298139 0.4218867 -0.5776272 -0.6059349 0.56116164 -0.77024764
0.6946656 -0.27876732 0.5709248 -0.5998876 -0.049743712 -0.5848434 -0.24100405 -0.42561075
-0.47510746 0.13244298 -0.04409611 -0.20938712 -0.5678254 -0.58658564 -0.14245881 -0.05713611
-0.86288095 -0.010564524 0.4716416 0.3610605 -0.23701431 0.50597095 -0.07346099 0.36495078
-0.51370186 -0.22377042 0.15696895 -0.28553915 -0.6152728 0.38466382 0.6539462 0.7616775
-0.44215646 0.37402913 0.374518 -0.1265758 0.08099443 0.12684333 -0.39296934 -0.5955518
0.09707514 -0.03349384 0.07496405 -0.46281397 0.59438276 -0.08777589 -0.088574186 -0.850632
0.12787522 -0.3923388 0.5565589 0.07989801 0.2564269 0.6462976 -0.39024472 0.44587454
-0.5618889 -0.09517363 -0.33328617 -0.63893723 -0.5271839 -0.11915316 0.16181989 0.11449431
00000000: 3b10 70be 3897 bebe bb6c d4bd 0839 febb
00000010: e06b 553f a429 f63e 5361 913c de4f 54be
00000020: 6beb 6d3e 4128 42bf f47b 82be 87c1 adbe
00000030: a45e dabe 6534 fbbe fbfd c63d ac32 62be
00000040: 8a69 573e b732 fbbe 3b95 6ebd 3fd7 003f
00000050: 166b 3f3e a8fc 86be 5c5d 033e 933c 3e3c
00000060: 457c 1dbe d9ce fe3e 6c60 3f3e 0473 fdbe
00000070: 5488 953d 6971 ccbe 8078 43bd 697b 6dbe
00000080: 4a9b a03e 62fb ccbe aa29 a83d c9c2 d83e
00000090: 20cc 90be 4a2c 663c f28b 01bd 9c7f dfbd
000000a0: 8cf8 103f 27fd 3f3e 3371 3abc ddce 6bbe
000000b0: 6b97 b13e 3c6f 22bf 61cd 603e cbdc 86be
000000c0: a03b 06be 19e2 0ebc 806a 83be c160 873e
000000d0: a1ed b8be 83fb 69be 0a08 d0bd bee4 3ebe
000000e0: 9dfb 1cbf 95ba f9be ea9c 45be 8901 d83e
000000f0: 60df 13bf 8d1e 1bbf 4aa8 0f3f f32e 45bf
00000100: 9bd5 313f 97ba 8ebe 2128 123f 3c92 19bf
00000110: 10c0 4bbd 4cb8 15bf c4c9 76be a7e9 d9be
00000120: 4941 f3be 229f 073e 1f9e 34bd 9469 56be
00000130: 015d 11bf 7a2a 16bf b9e0 11be 8e07 6abd
00000140: c4e5 5cbf d316 2dbc 027b f13e ecdc b83e
00000150: e1b3 72be 5087 013f b772 96bd d4da ba3e
00000160: f781 03bf 1324 65be 78bc 203e 3032 92be
00000170: 8582 1dbf a8f2 c43e 0569 273f 4cfd 423f
00000180: 5562 e2be bf80 bf3e d3c0 bf3e 169d 01be
00000190: 68e0 a53d 38e3 013e 4733 c9be 1576 18bf
000001a0: 55cf c63d d630 09bd c086 993d f4f5 ecbe
000001b0: 7829 183f d9c3 b3bd 6266 b5bd 05c3 59bf
000001c0: b9f1 023e a2e0 c8be a57a 0e3f 91a1 a33d
000001d0: 634a 833e c273 253f 28ce c7be ab49 e43e
000001e0: f3d7 0fbf 64ea c2bd 7ca4 aabe 6491 23bf
000001f0: 86f5 06bf 9206 f4bd 1db4 253e fe7b ea3d

line_batch1.running_var f4 [128]
0.3816749 0.2496134 0.22140169 0.52088463 0.51092577 0.66373163 0.20476569 0.13926597
0.31775567 0.29600373 0.67946184 0.4787064 0.24191691 0.5269914 0.20921706 0.40282747
0.482329 0.7615614 0.43512186 0.32569692 0.3198502 0.48368758 0.27436665 0.35967797
0.54194087 0.7388932 0.35088062 0.39592996 0.28612828 0.41453537 0.24788104 0.28382215
0.4492013 0.2979128 0.26410314 0.4278636 0.40075138 0.4598805 0.51118064 0.4702458
0.32135165 0.21305814 0.741053 0.39037493 0.44833943 0.474397 0.6358377 0.3089781
0.44158718 0.39728093 0.24844302 0.4311925 0.37025025 0.27503535 0.4263807 0.3844611
0.86258507 0.44264668 0.20159362 0.361197 0.49797404 0.66137564 0.2668573 0.5109562
0.3200952 0.36937556 0.19396849 0.94653356 0.3990655 0.68970615 0.61319953 0.31483915
0.5164454 0.47139433 0.25059018 0.26939267 0.7730854 0.59604585 0.74952006 0.3491018
0.29994017 0.27717847 0.4318177 0.2671175 0.2579707 0.5106546 0.3702215 0.49307212
0.42107424 0.83719295 0.49949265 0.6909455 0.5329894 0.5313818 1.0294636 0.3170366
0.31592885 0.5548663 0.39027384 0.42712316 0.3666941 0.32739452 0.21112427 0.801527
0.69581586 0.50815636 0.50414854 0.16272265 0.488299 0.44109285 0.51920325 0.20446604
0.27050927 0.32656655 0.30464938 0.22347146 0.34984434 0.3661944 0.34086046 0.42190075
0.28248915 0.322317 0.38505307 0.4794528 0.3739982 0.27237663 0.19798885 0.35709658
00000000: e46a c33e a89a 7f3e 20b7 623e b258 053f
00000010: 08cc 023f 51ea 293f 19ae 513e bd9b 0e3e
00000020: dfb0 a23e cd8d 973e 36f1 2d3f 0119 f53e
00000030: 11b9 773e e9e8 063f ff3c 563e 673f ce3e
00000040: d4f3 f63e b0f5 423f 4bc8 de3e bfc1 a63e
00000050: 68c3 a33e e6a5 f73e c979 8c3e b627 b83e
00000060: a3bc 0a3f 1b28 3d3f a0a6 b33e 55b7 ca3e
00000070: 687f 923e fb3d d43e 87d4 7d3e 2351 913e
00000080: b6fd e53e 0788 983e 8738 873e f010 db3e
00000090: 492f cd3e 7575 eb3e bcdc 023f 0fc4 f03e
000000a0: 3488 a43e ea2b 5a3e a6b5 3d3f 39df c73e
000000b0: bf8c e53e 2ae4 f23e 42c6 223f 6132 9e3e
000000c0: b717 e23e 6868 cb3e d967 7e3e 43c5 dc3e
000000d0: 7191 bd3e 6fd1 8c3e 924e da3e 16d8 c43e
000000e0: 60d2 5c3f 96a2 e23e 8f6e 4e3e d0ee b83e
000000f0: 74f6 fe3e ea4f 293f 85a1 883e 07ce 023f
00000100: 85e3 a33e cb1e bd3e ad9f 463e 0650 723f
00000110: 5052 cc3e 9590 303f a5fa 1c3f 9932 a13e
00000120: c435 043f 995a f13e 5b4d 803e d6ed 893e
00000130: ede8 453f 7696 183f 8ce0 3f3f 79bd b23e
00000140: c291 993e 56ea 8d3e 3617 dd3e a0c3 883e
00000150: bc14 843e 43ba 023f ac8d bd3e f373 fc3e
00000160: 0b97 d73e 4752 563f 80bd ff3e cee1 303f
00000170: fe71 083f a308 083f 77c5 833f 9f52 a23e
00000180: 6dc1 a13e b80b 0e3f f9d1 c73e e3af da3e
00000190: 54bf bb3e 41a0 a73e f630 583e e030 4d3f
000001a0: fd20 323f 8916 023f e10f 013f c4a0 263e
000001b0: 5402 fa3e ecd6 e13e 81ea 043f 8c5f 513e
000001c0: 3180 8a3e bb33 a73e 01fb 9b3e b4d5 643e
000001d0: cc1e b33e d57d bb3e 4385 ae3e 6003 d83e
000001e0: 6ba2 903e bc06 a53e ad25 c53e d67a f53e
000001f0: b17c bf3e f374 8b3e 97bd 4a3e 5dd5 b63e

line_batch2.weight f4 [64]
0.9474859 0.9637469 0.99708486 0.9769488 0.93175924 0.9555749 0.9603665 0.9705639
0.97182447 0.99595106 0.95887375 0.93921965 0.98421 0.9770485 0.9454004 0.9757162
0.9624312 0.9722763 0.93604124 0.9651097 0.9158339 0.94199634 0.9563914 0.9657138
0.9915674 0.9334927 0.9792935 0.9434718 0.95851773 0.9643365 0.96541643 0.96942973
0.96961695 0.961943 0.97673345 0.9925124 0.9594956 0.96921664 0.97716427 0.9742198
0.9895425 0.950638 0.9762926 0.95753 0.9461366 0.9672388 0.9451717 0.9819158
0.96554404 0.97377455 1.0115765 0.9401735 1.0381303 0.98273635 0.9722552 0.97858477
0.94183874 0.96921134 0.9864508 0.9523432 0.99680334 0.9969841 0.98034096 0.9837191
00000000: 708e 723f 1eb8 763f f440 7f3f 5119 7a3f
00000010: c687 6e3f 8fa0 743f 94da 753f e076 783f
00000020: 7dc9 783f a6f6 7e3f c078 753f b370 703f
00000030: 30f5 7b3f da1f 7a3f c305 723f 89c8 793f
00000040: e461 763f 19e7 783f 66a0 6f3f 6e11 773f
00000050: 1774 6a3f ac26 713f 11d6 743f 0539 773f
00000060: 5cd7 7d3f 61f9 6e3f fbb2 7a3f 5e87 713f
00000070: 6b61 753f c2de 763f 8825 773f 8c2c 783f
00000080: d138 783f e541 763f 340b 7a3f 4b15 7e3f
00000090: 81a1 753f 951e 783f 7027 7a3f 7866 793f
000000a0: a852 7d3f 035d 733f 50ee 793f b020 753f
000000b0: 0236 723f f69c 773f c6f6 713f d55e 7b3f
000000c0: e52d 773f 4a49 793f 577b 813f 36af 703f
000000d0: 74e1 843f 9c94 7b3f b7e5 783f 8884 7a3f
000000e0: 581c 713f 3c1e 783f 0a88 7c3f c4cc 733f
000000f0: 812e 7f3f 5a3a 7f3f a0f7 7a3f 04d5 7b3f

line_batch2.bias f4 [64]
-0.0060645547 -0.019184433 -0.012778253 0.017693413 -0.014875349 -0.026408007 -0.013653782 0.0001228973
-0.009929962 0.040899254 0.0005267911 -0.0049491655 0.014495342 0.024448687 -0.012251406 -0.019548703
-0.009565157 -0.017976481 -0.044720367 0.00027297236 -0.051337086 -0.03477699 0.0063017574 -0.0009728756
0.011445555 -0.075113 0.0010035723 -0.007366755 -0.0012547815 -0.0027941149 0.0008347046 -0.010684628
0.003279561 -0.000745823 -0.0022299888 -0.011278034 -0.0030103954 0.005080428 -0.000792558 -0.022285901
-0.003585512 -0.013631965 0.038368087 -0.01464666 -0.020111188 0.016749239 -0.031366754 0.023889013
-0.012131141 -0.010608402 0.0148318475 -0.03504722 0.087430686 0.0017996556 0.0026810702 -0.002178015
-0.023239778 -0.016292581 0.026674295 0.005966423 0.053075615 0.023277951 0.005783661 0.03133729
00000000: 2cb9 c6bb ac28 9dbc e15b 51bc c7f1 903c
00000010: bcb7 73bc 9b55 d8bc 1db4 5fbc fedd 0039
00000020: 48b1 22bc fa85 273d 5a18 0a3a 9c2c a2bb
00000030: df7d 6d3c 9d48 c83c 1fba 48bc 9a24 a0bc
00000040: 2db7 1cbc 6a43 93bc b42c 37bd bb1d 8f39
00000050: d646 52bd 5172 0ebd f97e ce3b 9408 7fba
00000060: 2386 3b3c d8d4 99bd 4c8a 833a d264 f1bb
00000070: 7b77 a4ba 781d 37bb 14d0 5a3a 940e 2fbc
00000080: e7ed 563b 5683 43ba 0125 12bb 81c7 38bc
00000090: 0e4a 45bb b879 a63b abc3 4fba ec90 b6bc
000000a0: e9fa 6abb 9b58 5fbc db27 1d3d 8bf8 6fbc
000000b0: 38c0 a4bc b335 893c 6d7a 00bd e4b2 c33c
000000c0: b1c1 46bc ddce 2dbc 4701 733c ac8d 0fbd
000000d0: dc0e b33d 6ce2 eb3a e5b4 2f3b 07bd 0ebb
000000e0: 5961 bebc 0578 85bc 0d84 da3c fc81 c33b
000000f0: d165 593d 67b1 be3c dd84 bd3b 885b 003d

line_batch2.running_mean f4 [64]
-0.3023046 -0.39854735 -0.15196383 -0.60230124 -0.44160125 -0.08992098 -0.164166 -0.52351105
0.52004945 -0.5727804 -0.02936112 -0.4735115 -0.41171896 -0.28668737 -0.20982927 -0.65862316
-0.5433985 -0.28042254 0.5217737 -0.8479713 -0.08720039 -0.7000287 -0.4448452 -0.564106
-0.4471721 -0.2641048 -0.07313805 0.4941591 -0.5325591 0.5170605 -0.07975316 -0.38438827
-0.5783857 -0.42340603 -0.073787495 -0.14907792 -0.108892 -0.1388018 0.44505018 0.4167223
-0.18401633 -0.075836696 -0.4995544 0.031586543 -0.65507114 -0.6764894 0.2988415 -0.37121466
0.08789399 0.37806532 0.26033506 -0.23456451 -0.14404176 -0.07488632 -0.7100897 0.13456494
-0.3785116 -0.33827716 -0.47249967 -0.649954 -0.57805467 -0.4798239 -0.22968736 -0.9055997
00000000: abc7 9abe 660e ccbe 689c 1bbe 6a30 1abf
00000010: 8f19 e2be 7e28 b8bd 221b 28be d204 06bf
00000020: f621 053f bca1 12bf bb86 f0bc 1970 f2be
00000030: d4cc d2be b0c8 92be 7cdd 56be 879b 28bf
00000040: 2a1c 0bbf 8b93 8fbe f692 053f a614 59bf
00000050: 1e96 b2bd 1535 33bf c0c2 e3be 4069 10bf
00000060: bef3 e4be bf38 87be 67c9 95bd 6c02 fd3e
00000070: cb55 08bf 145e 043f a055 a3bd 8ace c4be
00000080: 1611 14bf adc8 d8be e61d 97bd e2a7 18be
00000090: c502 dfbd 0f22 0ebe 9edd e33e a05c d53e
000000a0: c76e 3cbe 4550 9bbd 98c5 ffbe e460 013d
000000b0: beb2 27bf 692e 2dbf c101 993e d90f bebe
000000c0: c401 b43d c791 c13e a34a 853e ae31 70be
000000d0: af7f 13be 005e 99bd 70c8 35bf 64cb 093e
000000e0: 46cc c1be aa32 adbe 7aeb f1be 6363 26bf
000000f0: 64fb 13bf 7aab f5be 2a33 6bbe 62d5 67bf

line_batch2.running_var f4 [64]
0.42286733 0.43226406 0.80720675 0.8195136 0.52540296 0.41776788 0.43359613 0.51045656
0.47779503 0.38395622 0.8294919 0.58953303 0.8228772 0.7361941 1.052961 0.3122025
0.2622214 0.4390727 0.5064797 0.26823664 0.5042988 0.1753852 0.4479839 0.41617683
0.4047566 0.55776364 0.43148655 0.6533794 1.0936025 0.777186 0.68120235 0.30182642
0.25224385 0.4722534 0.5424189 0.6209053 0.49668604 0.32268178 0.925775 0.6437775
0.6344656 0.25040156 1.3645728 0.64578176 0.55618006 0.99102014 0.34742403 0.7351031
0.93456143 0.841694 0.82018536 0.2491286 1.0518322 0.72327644 0.19921541 0.387414
0.48310825 0.6048761 1.0842903 0.1812832 1.2234902 1.0668308 0.47763652 0.98659986
00000000: 1182 d83e b751 dd3e 1aa5 4e3f a5cb 513f
00000010: cf80 063f ace5 d53e 5000 de3e 48ad 023f
00000020: 8da1 f43e e995 c43e 9559 543f a3eb 163f
00000030: 15a8 523f 3777 3c3f 6dc7 863f 02d9 9f3e
00000040: e241 863e 23ce e03e a7a8 013f 5056 893e
00000050: ba19 013f 2e98 333e 255e e53e 2115 d53e
00000060: 423c cf3e 99c9 0e3f ceeb dc3e df43 273f
00000070: 2bfb 8b3f a9f5 463f 4763 2e3f fe88 9a3e
00000080: 1b26 813e 33cb f13e f7db 0a3f a6f3 1e3f
00000090: a24d fe3e 8c36 a53e 97ff 6c3f 9ace 243f
000000a0: 566c 223f a234 803e 52aa ae3f f451 253f
000000b0: d161 0e3f 7fb3 7d3f 90e1 b13e b72f 3c3f
000000c0: 6b3f 6f3f 4279 573f abf7 513f 911b 7f3e
000000d0: 70a2 863f a528 393f 20ff 4b3e 215b c63e
000000e0: f759 f73e 29d9 1a3f 06ca 8a3f 4ea2 393e
000000f0: 549b 9c3f e98d 883f c68c f43e cf91 7c3f

linear1.weight f4 [128, 192]
-0.07716961 -0.04311511 0.060164206 0.05325303 0.060263116 0.046415552 -0.043213807 0.06466181
-0.023220697 0.06923989 -0.008045899 -0.00533773 0.026486177 0.034460954 0.07077589 -0.062155977
0.02846908 -0.017360024 0.06624444 0.019569878 0.06912799 0.050024092 -0.01134503 0.06304351
-0.020243427 0.04508242 0.023474265 -0.0747749 -0.07218446 -0.023205074 -0.031158872 -0.025827548
0.038718916 0.010319595 0.02665749 0.043627255 -0.020953353 0.05737292 0.015550285 -0.01306699
-0.025944233 -0.057653666 -0.03109632 -0.050904233 0.07641503 0.014875928 0.031179411 0.04204344
0.049010187 0.072395235 0.05322387 0.04936302 -0.0029893974 -0.027296094 -0.057347815 -0.053631846
-0.03969753 -0.059037786 0.047281 -0.011994786 0.091784395 0.067660704 -0.055459354 0.015588961
-0.01552003 0.034661405 0.061314534 0.01377048 -0.027274594 -0.04743923 0.018820748 -0.059287313
-0.04886939 0.028026072 0.05099098 0.057041287 0.021703957 0.051402505 0.09480891 0.045255914
0.011720572 0.017291829 -0.035020005 -0.015797054 -0.06854876 -0.05883571 -0.03696328 -0.031664178
-0.0085953465 -0.006510833 -0.013279859 -0.08578165 -0.02152786 -0.04748087 -0.04230417 0.024435291
0.031267937 0.042599324 -0.049245153 -0.020677969 -0.007832337 0.052997876 -0.042481344 0.05526078
-0.03940501 -0.040132567 -0.024604565 0.04167952 0.039111152 0.018816264 0.011905696 -0.048036274
-0.08138098 -0.031715613 -0.0024824063 -0.0040609823 -0.0444156 0.07004647 -0.042293653 -0.012863318
-0.03612181 -0.068498895 -0.06291984 -0.06022997 0.001648218 0.009603922 -0.07524822 0.027750203
0.029231733 -0.003683597 -0.008794507 0.035373 0.07259079 -0.004290723 0.042828318 -0.04301607
-0.051488962 -0.0099223135 -0.02345749 -0.03338294 0.036153536 0.050421365 0.028386464 -0.0660387
-0.07259959 -0.0008504615 -0.0016997171 -0.05811397 -0.014093081 -0.07882681 0.053353064 -0.017399805
0.00077547505 -0.036974452 -0.008980434 -0.076460354 -0.06734288 -0.058958773 -0.045341913 0.0408255
-0.055479977 0.046260662 -0.00937635 -0.0241547 -0.01469721 -0.10256744 -0.008366034 -0.012686387
0.0046833353 -0.06470526 -0.0034651125 -0.007824798 0.021721205 -0.055588283 -0.012934081 0.060800835
0.07095368 -0.063437134 -0.088370666 0.011122823 -0.0021010607 -0.03838585 -0.028553903 -0.097924545
-0.034088906 0.041853387 -0.025086988 -0.03552049 -0.06285456 -0.060007203 0.045967452 -0.068962924
-0.08050997 0.06426797 0.08559383 -0.01837452 0.06555734 -0.0271256 0.02858443 0.042703416
0.012444058 -0.06316339 0.06312145 -0.038397603 -0.0765243 -0.033147555 0.032839976 0.021064086
0.059266444 -0.025157925 -0.004646516 0.059983287 -0.072774224 -0.09884844 -0.06086718 -0.025354726
-0.06087233 0.035034217 0.05473696 0.033885736 -0.026515648 -0.018726092 -0.005197465 0.06964417
0.01675686 -0.084911145 -0.057171836 -0.06190215 -0.025291584 -0.055057287 0.06333452 0.05537037
-0.054634638 -0.0100582065 -0.053120997 -0.025582913 0.03451303 0.022419533 0.03356852 0.056474566
-0.0519365 0.05790374 -0.06087994 0.021937912 0.039881203 -0.045800455 -0.007753322 -0.040120903
0.0046167267 -0.016285464 0.057744548 0.045241784 -0.010466147 -0.049268875 0.0683689 0.033476166
00000000: 1a0b 9ebd 7899 30bd be6e 763d d91f 5a3d
00000010: 75d6 763d 3c1e 3e3d f600 31bd 696d 843d
00000020: 5539 bebc a5cd 8d3d f2d2 03bc 20e8 aebb
00000030: 8af9 d83c ee26 0d3d f3f2 903d 4497 7ebd
00000040: fd37 e93c 9c36 8ebc 2aab 873d 0251 a03c
00000050: fa92 8d3d 10e6 4c3d 81e0 39bc f51c 813d
00000060: 8bd5 a5bc 58a8 383d 1a4d c03c 9523 99bd
00000070: 72d5 93bd 9118 bebc e440 ffbc 4b94 d3bc
00000080: ba97 1e3d 8513 293c cf60 da3c 7eb2 323d
00000090: 5ea6 abbc deff 6a3d 9fc6 7e3c ee16 56bc
000000a0: 0089 d4bc 4026 6cbd b6bd febc f580 50bd
000000b0: 7c7f 9c3d 2aba 733c f76b ff3c be35 2c3d
000000c0: e8be 483d f443 943d 4601 5a3d e130 4a3d
000000d0: c4e9 43bb 0f9c dfbc 8be5 6abd 11ad 5bbd
000000e0: e199 22bd 9bd1 71bd b9a9 413d c785 44bc
000000f0: 75f9 bb3d b291 8a3d 5929 63bd d768 7f3c
00000100: b947 7ebc 1ef9 0d3d f324 7b3d 949d 613c
00000110: f86e dfbc a34f 42bd f82d 9a3c 41d7 72bd
00000120: 452b 48bd ef96 e53c ebdb 503d 20a4 693d
00000130: 7fcc b13c 6f8b 523d 2c2b c23d 445e 393d
00000140: a407 403c 98a7 8d3c 2371 0fbd d368 81bc
00000150: 4b63 8cbd b7fd 70bd cf66 17bd 4cb2 01bd
00000160: 7fd3 0cbc d358 d5bb c493 59bc 4aae afbd
00000170: 325b b0bc 4d7b 42bd 2347 2dbd 852c c83c
00000180: cf12 003d a17c 2e3d 49b5 49bd d864 a9bc
00000190: 3453 00bc 4d14 593d eb00 2ebd 2159 623d
000001a0: 2667 21bd 0c62 24bd 838f c9bc 25b8 2a3d
000001b0: 0433 203d 9124 9a3c 1c10 433c afc1 44bd
000001c0: 12ab a6bd 3be8 01bd deaf 22bb fd11 85bb
000001d0: 22ed 35bd 8674 8f3d 1c3c 2dbd abc0 52bc
000001e0: 77f4 13bd 2649 8cbd 1edc 80bd b3b3 76bd
000001f0: 0509 d83a c559 1d3c bd1b 9abd 6554 e33c
00000200: 6377 ef3c 8168 71bb d616 10bc 47e3 103d
00000210: 7baa 943d 3199 8cbb bf6c 2f3d 9e31 30bd
00000220: 17e6 52bd 3391 22bc ec29 c0bc 8dbc 08bd
00000230: bb15 143d a286 4e3d bb8a e83c 4c3f 87bd
00000240: 18af 94bd 81f1 5eba 0bc9 deba ea08 6ebd
00000250: aae6 66bc f36f a1bd be88 5a3d 098a 8ebc
00000260: 4049 4b3a 8672 17bd ac22 13bc 3f97 9cbd
00000270: 10eb 89bd c17e 71bd 71b8 39bd a438 273d
00000280: f93e 63bd d27b 3d3d 439f 19bc 14e0 c5bc
00000290: 91cc 70bc e10e d2bd b111 09bc 90da 4fbc
000002a0: aa76 993b 3184 84bd f116 63bb 9533 00bc
000002b0: abf0 b13c 8ab0 63bd 78e9 53bc 4c0a 793d
000002c0: 2a50 913d 54eb 81bd aefb b4bd 803c 363c
000002d0: f3b1 09bb 7b3a 1dbd e0e9 e9bc aa8c c8bd
000002e0: cfa0 0bbd 756e 2b3d 3a83 cdbc ef7d 11bd
000002f0: e4b9 80bd 1dca 75bd 5e48 3c3d 6f3c 8dbd
00000300: 69e2 a4bd ed9e 833d d14b af3d 2986 96bc
00000310: ed42 863d 8236 debc e529 ea3c c7e9 2e3d
00000320: 2ae2 4b3c cf5b 81bd d245 813d ce46 1dbd
00000330: c6b8 9cbd bbc5 07bd 3683 063d 978e ac3c
00000340: 5fc1 723d fe17 cebc cd41 98bb 09b1 753d
00000350: a70a 95bd 0d71 cabd dd4f 79bd b7b4 cfbc
00000360: 4455 79bd 0a80 0f3d dd33 603d c5cb 0a3d
00000370: 5837 d9bc 7667 99bc 7f4f aabb 9aa1 8e3d
00000380: af45 893c e5e5 adbd 042d 6abd 1c8d 7dbd
00000390: 4c30 cfbc c083 61bd 87b5 813d 0bcc 623d
000003a0: 92c8 5fbd 2dcb 24bc 6795 59bd 4293 d1bc
000003b0: 895d 0d3d 2ba9 b73c 257f 093d e051 673d
000003c0: 5ebb 54bd 792c 6d3d 3e5d 79bd 23b7 b33c
000003d0: 795a 233d 4299 3bbd 940f febb d155 24bd
000003e0: e947 973b 1869 85bc 8c85 6c3d 734f 393d
000003f0: 347a 2bbc 29ce 49bd fe04 8c3d 4e1e 093d

linear1.bias f4 [128]
0.030066475 0.0035387203 -0.066401795 0.028918745 -0.009702683 -0.0091446 0.056141786 0.05042869
-0.068419494 -0.030839097 -0.00024522177 0.013363631 -0.06269636 0.003096704 0.0047954773 0.015465883
0.01976604 -0.012592293 -0.069754265 0.062557 -0.006502636 0.0117722675 0.057272814 -0.012669501
0.0023263814 0.06928929 0.032577634 -0.058084756 -0.018620064 -0.040242728 -0.06478944 -0.067024395
-0.035716645 0.063022226 -0.010463493 -0.043291893 0.0413208 0.03989268 0.019580811 -0.027059099
0.020508388 0.03316881 0.018025035 -0.06689361 -0.013708336 -0.025863864 0.06781973 0.035548054
-0.060628034 -0.04529215 0.07215112 0.05477661 -0.021838462 -0.04559898 0.036314394 -0.02018013
0.06659104 0.031208042 0.009486661 0.0072543374 -0.03766555 -0.008326022 -0.056521863 -0.039051443
-0.026126916 -0.035804547 0.029799864 -0.053143848 0.07107135 0.056762386 0.07162068 -0.033496823
0.025757995 -0.056842003 -0.03542911 -0.020704018 -0.06030757 0.013001215 -0.0017796373 0.046934817
0.06323681 -0.055143993 0.008786176 0.06730546 -0.011016067 -0.011830578 0.024329865 0.039906252
-0.02856131 0.057637554 -0.07162429 0.011337211 -0.038921352 -0.062381778 0.03069342 0.014510993
-0.027054649 0.02390634 0.06651978 0.043413226 -0.029348 0.023757294 0.032924227 0.043036155
-0.019631417 0.034712348 0.041372832 -0.034354664 -0.005923322 -0.048058555 -0.030030794 -0.049192768
0.027966022 -0.056786794 0.06883415 -0.036829047 0.011326503 -0.058952168 0.0015528915 0.016058898
0.036667928 0.005444359 0.036923423 -0.03269712 -0.023596412 -0.047854245 -0.0010503294 -0.012305554
00000000: f84d f63c e0e9 673b aafd 87bd 01e7 ec3c
00000010: 01f8 1ebc 3bd3 15bc eef4 653d 508e 4e3d
00000020: 851f 8cbd 46a2 fcbc 1c91 80b9 22f3 5a3c
00000030: f366 80bd 12f2 4a3b 6123 9d3b 9d64 7d3c
00000040: 64ec a13c e84f 4ebc 53db 8ebd e21d 803d
00000050: 1014 d5bb 78e0 403c e696 6a3d bd93 4fbc
00000060: 3476 183b 8be7 8d3d 2070 053d 48ea 6dbd
00000070: 1b89 98bc 8fd5 24bd 53b0 84bd 1644 89bd
00000080: 9e4b 12bd cc11 813d 126f 2bbc d752 31bd
00000090: 0040 293d 8266 233d f067 a03c 0bab ddbc
000000a0: 3501 a83c 05dc 073d 3da9 933c 84ff 88bd
000000b0: ee98 60bc 74e0 d3bc 12e5 8a3d d69a 113d
000000c0: 1a55 78bd 4384 39bd f7c3 933d 705d 603d
000000d0: 93e6 b2bc ffc5 3abd 67be 143d cd50 a5bc
000000e0: e260 883d 02a8 ff3c f16d 1b3c cbb5 ed3b
000000f0: 3147 1abd de69 08bc 7883 67bd 68f4 1fbd
00000100: 1d08 d6bc caa7 12bd d81e f43c 5dad 59bd
00000110: db8d 913d ad7f 683d ddad 923d f733 09bd
00000120: 6e02 d33c 29d3 68bd 1d1e 11bd 799b a9bc
00000130: 1205 77bd 0c03 553c b842 e9ba b93e 403d
00000140: 4d82 813d abde 61bd e5f3 0f3c 72d7 893d
00000150: bc7c 34bc 0ad5 41bc 6d4f c73c bd74 233d
00000160: 69f9 e9bc 5b15 6c3d c1af 92bd b6bf 393c
00000170: ff6b 1fbd 0984 7fbd c470 fb3c 84bf 6d3c
00000180: b6a1 ddbc 3bd7 c33c 863b 883d 11d2 313d
00000190: 386b f0bc a89e c23c 8edb 063d ae46 303d
000001a0: 11d2 a0bc 892e 0e3d 8f76 293d 7ab7 0cbd
000001b0: 6d18 c2bb 0cd9 44bd 2403 f6bc 5b7e 49bd
000001c0: 0019 e53c 4599 68bd ebf8 8c3d 0eda 16bd
000001d0: cc92 393c d477 71bd 648a cb3a f38d 833c
000001e0: 1c31 163d 9866 b23b 043d 173d 6aed 05bd
000001f0: 434d c1bc d002 44bd 35ab 89ba 3c9d 49bc

linear2.weight f4 [64, 128]
0.052369107 0.016012646 0.061618257 -0.07328848 0.014884028 -0.00011930013 0.10960432 -0.014165419
0.018711723 -0.0156052355 0.031751845 -0.06318029 -0.004698828 0.024298608 -0.017890949 -0.019353526
-0.010352244 0.06919894 -0.11152615 -0.00050142297 0.027151035 -0.08938925 -0.0010718763 -0.062425226
0.00354649 0.0016026207 -0.04431119 -0.036750186 0.09811733 -0.051216267 -0.07033883 0.08312528
0.08910789 -0.0076001044 0.0043903547 -0.09356668 -0.07632339 0.0035866026 0.029841233 -0.044218697
0.006064819 0.050189495 -0.06713918 0.020773647 -0.10966506 0.057678375 0.016790302 -0.028241327
-0.0073825014 -0.062055256 -0.037513133 -0.07444861 -0.04460514 -0.038751718 0.023008151 -0.06797512
0.056460656 0.040166404 0.073867075 0.09159763 0.0116587365 0.03837901 -0.042362873 -0.08656138
0.011096198 -0.050153572 0.05169269 -0.05522375 -0.024491703 0.0022103875 -0.06056771 -0.0023288263
-0.046278007 -0.07998075 -0.09645683 -0.006377844 -0.019395322 0.04497134 0.038945276 -0.025571706
-0.040706154 0.04859435 -0.03204852 -0.030260928 0.056371722 0.018910453 -0.025113953 0.033551563
0.06388 0.027975205 -0.016713502 -0.016523736 -0.07262954 0.04655427 0.07510493 -0.071138754
0.0654431 0.0413493 -0.07288639 -0.102205 0.054326452 0.045244407 -0.06371775 -0.052422233
0.009649872 -0.029497443 -0.047319576 -0.081087634 0.020527089 0.027704863 -0.085952535 0.022381691
0.044641938 0.075116426 0.029470047 0.004778382 0.007825238 0.047301665 -0.09266073 0.088013604
0.05213372 -0.060302056 -0.02791304 -0.06478362 0.015688976 -0.061818752 -0.048967965 0.039325222
0.05408148 -0.097726144 -0.027007665 0.026347432 -0.06763819 0.048434462 -0.10196323 0.05625599
-0.020140493 0.067521825 -0.01297645 -0.066806935 0.039976176 -0.04435037 -0.012290723 -0.027140742
-0.06144487 -0.03253596 -0.0023986513 0.0077520735 0.013911534 0.014758703 0.083026595 0.10213241
-0.031206712 0.0030651577 0.0040729735 0.02301755 -0.04296473 0.034743115 -0.030144023 0.0061551374
0.079864174 0.08333367 -0.054570023 0.056319818 -0.024725864 0.02476609 -0.054180954 0.07656955
-0.008102738 -0.047531195 -0.025337558 0.014227787 -0.042588685 -0.018639592 0.008612288 -0.046062674
0.025326759 0.072096854 -0.07352052 0.00522068 -0.0023454532 0.061704285 -0.0315288 -0.06590607
-0.055478077 0.0664793 -0.07114343 -0.089689404 -0.07213904 0.008228331 0.0483469 -0.019269599
-0.053811308 0.02839028 0.028402193 -0.0028924355 0.07029822 -0.012677719 -0.01240766 0.036452387
0.11685418 -0.07573856 -0.04451902 0.012578058 0.029393965 -0.059585758 -0.031386558 -0.058449112
-0.05236867 -0.03321378 0.051813744 0.046843667 -0.05448366 -0.016354224 0.086392164 -0.048403043
0.08111516 -0.06326905 -0.024086842 0.0056612217 0.051123507 -0.06485803 -0.08163994 -0.05194439
0.005238836 -0.043324873 0.08205132 0.12154399 -0.10267632 0.01817238 -0.06789931 -0.025508536
0.035940677 -0.016845392 -0.08425204 0.035998914 -0.0017498847 0.013936004 -0.0057421043 -0.07221569
-0.08006743 -0.035921227 -0.003557911 -0.057376012 0.015205307 -0.01855567 -0.001981367 -0.0493031
-0.02616077 0.06560769 -0.04562996 -0.008641573 -0.059434928 -0.015171271 -0.075974554 0.06969086
00000000: fd80 563d f42c 833c 6d63 7c3d 4518 96bd
00000010: 23dc 733c c530 fab8 3b78 e03d 1316 68bc
00000020: 5449 993c 1aad 7fbc 390e 023d ab64 81bd
00000030: a0f8 99bb e00d c73c 0a90 92bc 498b 9ebc
00000040: 759c 29bc 2db8 8d3d d267 e4bd ed71 03ba
00000050: d96b de3c b611 b7bd 337e 8cba 98b1 7fbd
00000060: 3b6c 683b 070f d23a a67f 35bd 5d87 16bd
00000070: bdf1 c83d 26c8 51bd ce0d 90bd 963d aa3d
00000080: 337e b63d 4c0a f9bb f7dc 8f3b e39f bfbd
00000090: 704f 9cbd 350d 6b3b 9a75 f43c aa1e 35bd
000000a0: 64bb c63b 8093 4d3d 4480 89bd 7f2d aa3c
000000b0: 1398 e0bd 2940 6c3d d18b 893c 5b5a e7bc
000000c0: e9e8 f1bb a72d 7ebd 5fa7 19bd 8378 98bd
000000d0: e1b3 36bd 1fba 1ebd 977b bc3c 8a36 8bbd
000000e0: 4a43 673d 8785 243d 9f47 973d 8a97 bb3d
000000f0: 4904 3f3c 4f33 1d3d b184 2dbd 1847 b1bd
00000100: d4cc 353c d56d 4dbd b7bb 533d 4d32 62bd
00000110: d3a2 c8bc 26dc 103b d915 78bd 399f 18bb
00000120: 028e 3dbd f3cc a3bd 298b c5bd 3cfd d0bb
00000130: f0e2 9ebc de33 383d 1585 1f3d c17b d1bc
00000140: 7fbb 26bd df0a 473d 4f45 03bd c4e5 f7bc
00000150: 09e6 663d 18ea 9a3c c7bb cdbc 5d6d 093d
00000160: 84d3 823d 422c e53c c1ea 88bc c95c 87bc
00000170: ccbe 94bd b1af 3e3d 9dd0 993d 32b1 91bd
00000180: 0807 863d e25d 293d 7645 95bd db50 d1bd
00000190: 6a85 5e3d 3352 393d 747e 82bd b2b8 56bd
000001a0: 7f1a 1e3c 9fa4 f1bc 2cd2 41bd 4611 a6bd
000001b0: 6d28 a83c 4ff5 e23c e207 b0bd cf59 b73c
000001c0: 77da 363d a4d6 993d 2b6b f13c f993 9c3b
000001d0: 6d35 003c 64bf 413d e9c4 bdbd 7a40 b43d
000001e0: 2b8a 553d 4aff 76bd e3a9 e4bc 46ad 84bd
000001f0: 2b86 803c a935 7dbd a292 48bd 7c13 213d
00000200: 8b84 5d3d a524 c8bd 2e3f ddbc 92d6 d73c
00000210: e485 8abd 3763 463d 19d2 d0bd ae6c 663d
00000220: adfd a4bc e248 8a3d 2d9b 54bc 13d2 88bd
00000230: 0fbe 233d bca8 35bd 075f 49bc 4356 debc
00000240: 9ead 7bbd 6d44 05bd b132 1dbb 1b05 fe3b
00000250: 34ed 633c 7dce 713c d909 aa3d cc2a d13d
00000260: 38a5 ffbc d0e0 483b 9476 853b 4d8f bc3c
00000270: c9fb 2fbd cc4e 0e3d 99f0 f6bc 09b1 c93b
00000280: d48f a33d d8aa aa3d d184 5fbd 9caf 663d
00000290: e58d cabc 41e2 ca3c d9ec 5dbd 7fd0 9c3d
000002a0: 59c1 04bc 12b0 42bd b690 cfbc aa1b 693c
000002b0: 7971 2ebd 0fb2 98bc 8e1a 0d3c 37ac 3cbd
000002c0: 107a cf3c 84a7 933d ed91 96bd 3d12 ab3b
000002d0: 2db6 19bb a2bd 7c3d 5824 01bd c3f9 86bd
000002e0: fb3c 63bd 4d26 883d a6b3 91bd 14af b7bd
000002f0: a2bd 93bd 1fd0 063c 6607 463d 47db 9dbc
00000300: 3f69 5cbd bc92 e83c b7ab e83c 048f 3dbb
00000310: 83f8 8f3d 35b6 4fbc 7f49 4bbc 194f 153d
00000320: 3f51 ef3d d11c 9bbd 9359 36bd 3314 4e3c
00000330: 9dcb f03c 3210 74bd 318f 00bd 5668 6fbd
00000340: 8880 56bd 2c0b 08bd a63a 543d 25df 3f3d
00000350: 422a 5fbd 4bf9 85bc 60ee b03d 4542 46bd
00000360: b41f a63d 3493 81bd c551 c5bc c581 b93b
00000370: e266 513d 49d4 84bd d732 a7bd a4c3 54bd
00000380: 8baa ab3b 6c75 31bd 860a a83d 0eec f83d
00000390: f647 d2bd 3ede 943c cb0e 8bbd 47f7 d0bc
000003a0: 8836 133d 59ff 89bc 558c acbd 9973 133d
000003b0: 635c e5ba d653 643c 4328 bcbb d2e5 93bd
000003c0: 65fa a3bd 2322 13bd d72b 69bb 1c03 6bbd
000003d0: ae1f 793c 0f02 98bc d2d9 01bb 0cf2 49bd
000003e0: 1c4f d6bc 535d 863d 7be6 3abd 6295 0dbc
000003f0: 0a72 73bd ec90 78bc 8c98 9bbd 15ba 8e3d

linear2.bias f4 [64]
0.02928436 -0.04262362 0.069331 0.06546022 -0.034343403 0.033868447 -0.084914885 -0.020031339
-0.028092258 -0.063638076 -0.06783086 0.059724953 0.060947638 0.074142136 0.046172358 0.062057838
0.009050675 0.0636273 0.001256466 0.0014343592 0.08022407 -0.029713525 0.08357362 0.03738965
0.050255336 -0.085740514 0.039745588 0.043050274 -0.0008389858 0.08204034 0.07672511 -0.0051178276
0.08047259 -0.07177109 -0.08541138 0.0019641595 0.014097194 0.058431305 0.06838291 0.0028242518
0.087688066 -0.038324654 -0.029776078 0.048712935 0.022991905 0.023010047 -0.033569846 0.0036696636
0.07355117 0.0352512 0.04183094 -0.050802723 -0.012854802 0.044420127 0.0039979075 0.05780037
0.06983762 -0.06532668 0.08783549 -0.014392466 0.058580864 0.0019743752 -0.03848597 -0.06052389
00000000: c1e5 ef3c 1b96 2ebd 69fd 8d3d 0210 863d
00000010: abab 0cbd a4b9 0a3d dbe7 adbd c318 a4bc
00000020: bc21 e6bc ae54 82bd e8ea 8abd 27a2 743d
00000030: 3ba4 793d d5d7 973d 3a1f 3d3d 5c30 7e3d
00000040: 4849 143c 084f 823d 01b0 a43a 1c01 bc3a
00000050: 844c a43d c769 f3bc a528 ab3d e425 193d
00000060: 8ad8 4d3d b998 afbd 45cc 223d 7c55 303d
00000070: 62ef 5bba c404 a83d 0e22 9d3d 73b3 a7bb
00000080: d0ce a43d b9fc 92bd 29ec aebd 21b9 003b
00000090: ebf7 663c aa55 6f3d 570c 8c3d 1517 393b
000000a0: cd95 b33d 50fa 1cbd f6ec f3bc 3787 473d
000000b0: 8559 bc3c 917f bc3c 8980 09bd bd7e 703b
000000c0: ffa1 963d 9063 103d eb56 2b3d 8416 50bd
000000d0: f39c 52bc e1f1 353d e100 833b 15c0 6c3d
000000e0: 0707 8f3d ffc9 85bd 18e3 b33d 61ce 6bbc
000000f0: 7df2 6f3d 8564 013b 77a3 1dbd e6e7 77bd

throttle1.weight f4 [32, 64]
-0.059054017 -0.06852487 -0.008147271 0.024639767 -0.10796449 -0.11503751 -0.11734602 -0.103653885
-0.067241475 -0.060657416 -0.0007423765 -0.05563468 0.06595116 -0.07344849 -0.025916256 -0.029935416
-0.08695311 -0.09326582 0.10710784 -0.17606883 -0.043203134 0.11798599 0.051673103 0.093764514
-0.0072047003 -0.06370027 -0.03347812 0.012279654 -0.009638306 -0.06352592 0.012901976 -0.08406472
0.05491093 0.010220178 0.061897118 0.035338085 -0.09904901 -0.033989657 -0.10848997 -0.028826762
0.0653769 -0.07893637 -0.13065833 -0.0711941 0.11647546 0.09167756 -0.049066845 -0.08147727
0.011552943 0.06891228 -0.022597544 0.065235056 -0.000120204204 -0.0056629726 0.115783595 -0.09017478
-0.06293469 -0.10987404 0.11176375 0.041856676 0.081679426 0.014042196 0.006116787 0.0019767422
-0.025619261 0.042378254 0.00788579 -0.07192477 -0.007828183 -0.0112179415 -0.044427328 -0.08370104
-0.07466021 -0.07303988 -0.10808375 0.06404223 0.09392571 -0.09509746 0.0981823 -0.11312254
0.09521064 0.015658062 0.00789272 0.09390075 -0.08925855 0.037610114 -0.10076838 -0.0013301094
0.10597725 0.0027155366 0.113165975 -0.10826793 0.10072097 0.059308656 0.026594214 0.028127873
0.06796025 0.0024462787 -0.08545855 -0.06946835 -0.1201666 -0.12193384 -0.061615337 -0.12457469
-0.0150014125 0.01281807 -0.081974246 -0.024344781 0.02309461 -0.04972974 0.052750386 -0.031097936
0.095001996 -0.04011061 0.075774215 -0.0007259728 0.07098055 -0.083091035 -0.08097739 0.043759022
0.09625298 -0.019433463 0.038762137 -0.09250236 -0.07933308 0.049503855 -0.10908961 -0.08348512
-0.058268562 0.063504934 0.024492433 0.003497653 -0.026566615 -0.0043219454 0.08138563 -0.05165906
0.09510474 0.051574446 -0.0772624 -0.028451337 -0.043247268 0.066326335 -0.09540852 0.07977995
0.095480196 0.07156376 0.0900595 -0.10352053 -0.007896671 -0.07711695 -0.088771425 -0.0883292
-0.05806109 -0.11728435 0.08751773 -0.0826892 -0.04059698 0.092937954 0.06199992 0.030022731
0.06915299 -0.08758097 -0.10437089 0.09068066 0.070237085 0.013151138 -0.096832424 0.052141592
-0.08606127 0.111708075 -0.01623991 0.10371893 -0.058722045 -0.0712706 -0.022251403 0.09023174
-0.024655802 -0.1329567 -0.11161325 -0.042633694 0.07539306 0.0004251681 0.10557108 -0.07020898
-0.0076494785 0.07073906 0.00031611574 0.0577684 -0.08338286 0.096667685 -0.02104019 -0.03879248
-0.093369536 -0.024676783 -0.09584225 0.043237254 0.06946457 -0.120801985 0.037490882 -0.12670308
-0.027849568 0.07238216 -0.12636901 -0.052740417 0.012892329 -0.015662137 0.06804735 -0.047732584
0.059783496 -0.121617645 -0.091627024 -0.012567288 0.063016854 -0.13037859 0.04904083 0.08688731
0.09362536 -0.031525187 -0.024782617 0.08610966 0.026537586 -0.015720252 -0.10651487 -0.05599986
-0.12514211 -0.059169587 -0.025671842 0.026895605 -0.04472018 0.07853922 -0.011077478 -0.15310988
0.052997816 -0.12054141 -0.027159892 -0.02666078 0.060910963 0.027628396 0.07708855 0.06745724
0.06188052 -0.104862384 0.08133845 -0.07782557 -0.07147484 -0.021900067 0.0016033464 -0.023234252
0.05738766 -0.049798947 0.021043986 -0.044410978 -0.12991774 -0.0739245 -0.046899278 0.095674455
00000000: a0e2 71bd c456 8cbd 227c 05bc 56d9 c93c
00000010: 7d1c ddbd c998 ebbd 1c53 f0bd 7d48 d4bd
00000020: e6b5 89bd e973 78bd 0b9c 42ba 31e1 63bd
00000030: 6711 873d 296c 96bd 544e d4bc 1e3b f5bc
00000040: 7914 b2bd 2602 bfbd 5b5b db3d 634b 34be
00000050: c5f5 30bd a4a2 f13d 2da7 533d 9c07 c03d
00000060: 6815 ecbb 4a75 82bd 5a20 09bd 9a30 493c
00000070: fce9 1dbc e119 82bd cf62 533c 202a acbd
00000080: 49ea 603d 8972 273c d587 7d3d abbe 103d
00000090: 35da cabd bd38 0bbd fd2f debd 1a26 ecbc
000000a0: 53e4 853d 64a9 a1bd 4ccb 05be 36ce 91bd
000000b0: b08a ee3d 72c1 bb3d 51fa 48bd 8edd a6bd
000000c0: 8e48 3d3c e221 8d3d 7c1e b9bc f599 853d
000000d0: 2416 fcb8 7590 b9bb f31f ed3d 8ead b8bd
000000e0: e7e3 80bd a405 e1bd 65e4 e43d e871 2b3d
000000f0: 8b47 a73d 3d11 663c 546f c83b 3b8c 013b
00000100: 7cdf d1bc d294 2d3d 6733 013c 4b4d 93bd
00000110: c741 00bc 75cb 37bc 6ef9 35bd 736b abbd
00000120: 74e7 98bd ef95 95bd 035b ddbd 9328 833d
00000130: 1f5c c03d 75c2 c2bd cd13 c93d caac e7bd
00000140: ccfd c23d 5645 803c 7850 013c 094f c03d
00000150: 30cd b6bd 100d 1a3d a75f cebd 1157 aeba
00000160: 9a0a d93d 25f7 313b 90c3 e73d 94bb ddbd
00000170: cc46 ce3d a2ed 723d 1cdc d93c 6d6c e63c
00000180: be2e 8b3d bf51 203b e404 afbd 6c45 8ebd
00000190: e819 f6bd 73b8 f9bd 5d60 7cbd 0421 ffbd
000001a0: 7cc8 75bc e202 523c 1de2 a7bd b56e c7bc
000001b0: e830 bd3c 69b1 4bbd ca10 583d 19c1 febc
000001c0: 6890 c23d 064b 24bd 832f 9b3d 364f 3eba
000001d0: 405e 913d a22b aabd 79d7 a5bd a93c 333d
000001e0: 4820 c53d ed32 9fbc 0cc5 1e3d e171 bdbd
000001f0: 6279 a2bd 8ec4 4a3d 606a dfbd 3ffa aabd
00000200: 04ab 6ebd e00e 823d 5ba4 c83c e138 653b
00000210: 3ba2 d9bc 1b9f 8dbb 82ad a63d 7398 53bd
00000220: 46c6 c23d ba3f 533d c03b 9ebd c712 e9bc
00000230: 0c24 31bd 1ad6 873d 8b65 c3bd ac63 a33d
00000240: 1f8b c33d 0590 923d 1d71 b83d 9202 d4bd
00000250: 0a61 01bc 7eef 9dbd cbcd b5bd f1e5 b4bd
00000260: 77d1 6dbd c732 f0bd 7f3c b33d f558 a9bd
00000270: 0549 26bd 4156 be3d a1f3 7d3d 3bf2 f53c
00000280: 15a0 8d3d a75d b3bd 68c0 d5bd c8b6 b93d
00000290: 76d8 8f3d df77 573c 1450 c6bd 6c92 553d
000002a0: e440 b0bd 34c7 e43d 8f09 85bc 976a d43d
000002b0: 8786 70bd 52f6 91bd 9348 b6bc 6bcb b83d
000002c0: f7fa c9bc cd25 08be 7d95 e4bd aba0 2ebd
000002d0: ad67 9a3d 19e9 de39 a735 d83d bac9 8fbd
000002e0: 7aa8 fabb a4df 903d 56bc a539 8f9e 6c3d
000002f0: a2c4 aabd b5f9 c53d 7a5c acbc dde4 1ebd
00000300: 8738 bfbd f726 cabc f148 c4bd 8c19 313d
00000310: 7143 8e3d 0867 f7bd 0a90 193d 74be 01be
00000320: c724 e4bc 193d 943d e166 01be 5606 58bd
00000330: 593a 533c e24d 80bc 695c 8b3d 3e83 43bd
00000340: 8adf 743d ac12 f9bd f3a6 bbbd 07e7 4dbc
00000350: fb0e 813d f781 05be 0adf 483d f9f1 b13d
00000360: a7be bf3d 8e20 01bd ea04 cbbc 435a b03d
00000370: 5a65 d93c c2c7 80bc 7824 dabd 1c60 65bd
00000380: 4125 00be cf5b 72bd c14d d2bc 2c54 dc3c
00000390: 822c 37bd 2cd9 a03d 4f7e 35bc d6c8 1cbe
000003a0: 3d14 593d 6ade f6bd 6c7e debc b567 dabc
000003b0: c67d 793d f254 e23c 9ae0 9d3d 0527 8a3d
000003c0: 6e76 7d3d 17c2 d6bd c694 a63d 0363 9fbd
000003d0: 6761 92bd c567 b3bc 6127 d23a c255 bebc
000003e0: 530f 6b3d fbf9 4bbd 7064 ac3c 49e8 35bd
000003f0: 2809 05be ba65 97bd 7519 40bd f8f0 c33d

throttle1.bias f4 [32]
0.028541792 -0.1235617 0.10594653 -0.15495375 0.018796965 -0.09921262 -0.06618517 -0.101835266
-0.11578592 -0.09275085 -0.006179077 -0.1440102 -0.0004405004 -0.114935935 0.09448763 -0.03414579
0.03093751 -0.0371242 -0.008962188 -0.04725894 0.014107659 -0.017380206 -0.081500724 -0.059281096
0.03368052 -0.053594343 -0.0834283 -0.01290716 0.017517373 -0.11647824 -0.14327446 -0.019598883
00000000: 7ad0 e93c eb0d fdbd 7ffa d83d 32ac 1ebe
00000010: 18fc 993c fc2f cbbd 178c 87bd 028f d0bd
00000020: 2b21 edbd 28f4 bdbd db79 cabb 6977 13be
00000030: f6f2 e6b9 8863 ebbd bb82 c13d 75dc 0bbd
00000040: a970 fd3c 8c0f 18bd 24d6 12bc 9792 41bd
00000050: d023 673c ef60 8ebc dae9 a6bd bcd0 72bd
00000060: 96f4 093d be85 5bbd 75dc aabd 8e78 53bc
00000070: 9880 8f3c 258c eebd 8ab6 12be d68d a0bc

steering1.weight f4 [32, 64]
-0.05127129 -0.10484901 0.06749562 -0.09673817 0.0058231307 -0.046960182 0.050507486 -0.09158645
0.022137087 -0.096832246 -0.112811826 0.037766416 0.034165878 -0.036492404 -0.01871853 0.05808222
-0.08797273 -0.03524667 0.03590616 0.062053226 0.056120146 0.06683675 -0.09030975 -0.08788567
0.08423044 -0.011002765 0.021521404 0.020130549 0.058281418 0.04450374 -0.13631809 -0.021634126
-0.07256982 0.057264663 0.09969144 0.06960134 0.024322515 0.048891973 -0.07702844 -0.097413726
0.016854579 -0.060047805 -0.0054021496 -0.07007713 0.08365228 -0.004826689 -0.03596105 -0.040560625
0.003775184 0.069236614 -0.04071138 0.049450886 -0.06860523 -0.122784704 0.08383798 -0.012273019
-0.13154097 -0.036608648 -0.11818756 0.045335464 -0.07054783 0.07713643 0.011257573 -0.03220081
-0.08217491 -0.14521776 -0.11890994 -0.09779135 0.06132739 -0.073778234 -0.015003669 0.0013195559
-0.0747534 0.09297936 0.050427943 -0.042483833 0.12785487 -0.012662061 -0.092146 -0.09733322
0.0321786 -0.02026671 0.08365271 -0.030547563 0.07182338 0.006127465 0.03512913 0.045758486
0.025351657 -0.022184495 -0.06692056 -0.008608949 -0.06388584 0.09075011 -0.090298444 0.0067669186
-0.06081446 -0.06153319 0.076111555 -0.107118584 0.046363126 -0.043885637 0.049393676 -0.064823024
-0.053777225 0.07440533 -0.053088173 0.056020997 0.043396376 0.0030680532 0.026334876 -0.06937118
-0.07008718 -0.09262602 -0.10515365 0.08836161 0.1038423 0.005945916 0.1091027 0.022020692
0.08287828 0.09238206 0.0030510924 -0.03468679 0.012882933 0.12739402 -0.0018332043 0.013546895
-0.07652018 0.111068085 -0.120845765 0.10016472 -0.10432156 -0.09419408 0.044572875 0.06822602
-0.02122067 0.12189924 0.07699845 0.015486727 -0.099060684 0.008270887 0.12077567 0.10095142
0.1314939 0.013901316 -0.13794051 0.054910578 0.0067465883 -0.01736369 -0.00056419946 0.06700809
-0.018578958 -0.02835397 0.041080084 0.1007094 0.07420586 0.02207474 0.06677642 -0.0847332
0.017785158 0.0063419696 -0.015363119 0.040455557 0.057674605 0.11328134 0.0072325543 -0.058352306
-0.12767789 -0.037874386 0.0010677848 0.07451702 0.009144486 0.08472627 -0.062024727 0.059079006
0.058147177 0.017431635 -0.11220632 -0.049233556 -0.06268922 -0.021685563 0.09278326 -0.025320247
-0.10368949 -0.06100583 0.09001793 -0.0035978775 0.12399135 0.08306825 0.02307809 0.06405839
-0.053074863 0.05335401 -0.011281853 0.008803424 0.085849784 -0.0095867645 0.092569254 -0.059340812
0.12670341 -0.05893719 -0.0153128775 0.07282158 -0.052735884 0.122740835 0.049722653 0.095160455
0.06292096 0.029343788 0.011244161 -0.016452601 0.09129608 0.07987238 -0.07425287 0.055112243
-0.08695995 -0.09268072 0.047296703 0.019737285 -0.032786563 -0.09152769 0.059775747 0.063349046
0.11217015 0.013555766 0.076268315 -0.1432695 0.04656367 -0.014326137 0.12417247 -0.14496025
-0.029028924 0.10369269 0.07784947 0.089053914 0.11091924 -0.015872883 -0.117574155 0.11510064
-0.07176703 0.06402907 -0.008454265 0.094086215 -0.04719501 0.09885205 -0.096070714 -0.0963769
0.00094546477 0.05326805 0.13748534 -0.005841375 0.02721749 0.021165067 0.07037213 -0.05123204
00000000: d801 52bd 14bb d6bd 253b 8a3d a91e c6bd
00000010: f6cf be3b 5259 40bd f0e0 4e3d ad91 bbbd
00000020: d658 b53c fc4f c6bd e309 e7bd f5b0 1a3d
00000030: 85f1 0b3d 0f79 15bd 9a57 99bc 9fe7 6d3d
00000040: 0c2b b4bd d05e 10bd 5612 133d 862b 7e3d
00000050: 3dde 653d b5e1 883d 51f4 b8bd 67fd b3bd
00000060: 0281 ac3d f144 34bc a84d b03c d2e8 a43c
00000070: 7fb8 6e3d 8e49 363d f896 0bbe 0d3a b1bc
00000080: 7c9f 94bd 5a8e 6a3d 072b cc3d 268b 8e3d
00000090: 0340 c73c f342 483d 16c1 9dbd d980 c7bd
000000a0: 9d12 8a3c b0f4 75bd 8404 b1bb 9984 8fbd
000000b0: e351 ab3d 3429 9ebb e54b 13bd e622 26bd
000000c0: 1469 773b edcb 8d3d fac0 26bd 038d 4a3d
000000d0: e680 8cbd 8c76 fbbd 3fb3 ab3d c614 49bc
000000e0: adb2 06be f3f2 15bd 520c f2bd aeb1 393d
000000f0: 617b 90bd b4f9 9d3d af71 383c ffe4 03bd
00000100: 524b a8bd f7b3 14be 0e87 f3bd d546 c8bd
00000110: 6e32 7b3d 0b19 97bd f3d1 75bc f3f4 ac3a
00000120: 5018 99bd f66b be3d 888d 4e3d 8703 2ebd
00000130: 63ec 023e 8874 4fbc 0bb7 bcbd a456 c7bd
00000140: b5cd 033d 5f06 a6bc 1d52 ab3d e23e fabc
00000150: 2318 933d e7c8 c83b 90e3 0f3d 406d 3b3d
00000160: 47ae cf3c 42bc b5bc a60d 89bd 8d0c 0dbc
00000170: 94d6 82bd 32db b93d 64ee b8bd 07bd dd3b
00000180: 9518 79bd 3a0a 7cbd 60e0 9b3d fd60 dbbd
00000190: 43e7 3d3d 6dc1 33bd 0651 4a3d efc1 84bd
000001a0: 8245 5cbd d261 983d fc72 59bd 4676 653d
000001b0: 66c0 313d 6411 493b 3dbc d73c 7a12 8ebd
000001c0: de89 8fbd b6b2 bdbd cc5a d7bd eff6 b43d
000001d0: 46ab d43d f5d5 c23b 3d71 df3d bd64 b43c
000001e0: 16bc a93d ce32 bd3d d6f4 473b bc13 0ebd
000001f0: f012 533c 9473 023e 2148 f0ba ccf3 5d3c
00000200: 9db6 9cbd aa77 e33d fc7d f7bd 2923 cd3d
00000210: 8ba6 d5bd d3e8 c0bd 0c92 363d 15ba 8b3d
00000220: f8d6 adbc 4fa6 f93d 5db1 9d3d 0abc 7d3c
00000230: 54e0 cabd 9d82 073c 3c59 f73d 9ebf ce3d
00000240: 56a6 063e 58c2 633c 4740 0dbe eae9 603d
00000250: 7c12 dd3b 4c3e 8ebc c9e6 13ba 8a3b 893d
00000260: e632 98bc 9646 e8bc 9743 283d bb40 ce3d
00000270: 3ef9 973d 16d6 b43c 13c2 883d 9a88 adbd
00000280: 2eb2 913c 4cd0 cf3b 97b5 7bbc bab4 253d
00000290: 353c 6c3d 0c00 e83d 10ff ec3b d402 6fbd
000002a0: febd 02be 2c22 1bbd eaf4 8b3a 619c 983d
000002b0: c1d2 153c f784 ad3d a40d 7ebd d4fc 713d
000002c0: bc2b 6e3d cacc 8e3c 6dcc e5bd 20a9 49bd
000002d0: 3563 80bd eca5 b1bc 2605 be3d 686c cfbc
000002e0: 285b d4bd 40e1 79bd 525b b83d 5eca 6bbb
000002f0: 2def fd3d b01f aa3d 430e bd3c 0c31 833d
00000300: 0765 59bd bc89 5a3d 85d7 38bc 3d3c 103c
00000310: 03d2 af3d ce11 1dbc f394 bd3d 5a0f 73bd
00000320: 8abe 013e 1f68 71bd dde2 7abc 7b23 953d
00000330: 9501 58bd 8c5f fb3d fba9 4b3d 7ce3 c23d
00000340: b4dc 803d 6262 f03c 6e39 383c 9bc7 86bc
00000350: 70f9 ba3d 2194 a33d e411 98bd 60bd 613d
00000360: 0f18 b2bd 64cf bdbd 30ba 413d 16b0 a13c
00000370: 344b 06bd df72 bbbd 6ad7 743d 25bd 813d
00000380: 77b9 e53d 0119 5e3c 9032 9c3d 3db5 12be
00000390: 8cb9 3e3d 2cb8 6abc 234e fe3d 7670 14be
000003a0: 11ce edbc d55c d43d 8b6f 9f3d e661 b63d
000003b0: a029 e33d d907 82bc b8ca f0bd e2b9 eb3d
000003c0: 98fa 92bd ac21 833d c283 0abc 46b0 c03d
000003d0: 8e4f 41bd f272 ca3d b9c0 c4bd 4161 c5bd
000003e0: 11d9 773a 992f 5a3d f5c8 0c3e 0169 bfbb
000003f0: 37f7 de3c 5d62 ad3c 431f 903d b0d8 51bd

steering1.bias f4 [32]
0.09766106 -0.017385097 0.025346937 -0.032873947 0.042052023 0.025829753 -0.044025626 -0.071134955
-0.063404225 -0.07667738 -0.065772906 -0.042852137 -0.08325487 0.08153168 0.03681783 -0.15356153
0.0091045825 0.12446331 -0.016783392 0.004862483 0.0250883 -0.13151573 0.081187226 -0.04139283
0.14084594 -0.10270555 0.10904082 0.0018839309 -0.08106345 -0.103489324 0.09225099 0.02768444
00000000: 8602 c83d 316b 8ebc 61a4 cf3c d5a6 06bd
00000010: be3e 2c3d eb98 d33c 3754 34bd 34af 91bd
00000020: 13da 81bd 0809 9dbd f2b3 86bd b985 2fbd
00000030: 8781 aabd 15fa a63d 4bce 163d 3c3f 1dbe
00000040: 632b 153c 9fe6 fe3d 537d 89bc 7755 9f3b
00000050: fb85 cd3c 0fac 06be 7d45 a63d 878b 29bd
00000060: eb39 103e 4a57 d2bd cb50 df3d 3bee f63a
00000070: 9804 a6bd 36f2 d3bd 16ee bc3d 7bca e23c
